program(1.0)
[buildInfo = dict<tensor<string, []>, tensor<string, []>>({{"coremlc-component-MIL", "3402.3.2"}, {"coremlc-version", "3402.4.1"}, {"coremltools-component-torch", "2.2.2"}, {"coremltools-source-dialect", "TorchScript"}, {"coremltools-version", "9.0"}})]
{
    func main<ios15>(tensor<fp32, [1, 3, 320, 320]> image) {
            tensor<fp32, []> image__scaled___y_0 = const()[name = tensor<string, []>("image__scaled___y_0"), val = tensor<fp32, []>(0x1.010102p-8)];
            tensor<fp32, [1, 3, 320, 320]> image__scaled__ = mul(x = image, y = image__scaled___y_0)[name = tensor<string, []>("image__scaled__")];
            tensor<string, []> input_1_pad_type_0 = const()[name = tensor<string, []>("input_1_pad_type_0"), val = tensor<string, []>("custom")];
            tensor<int32, [4]> input_1_pad_0 = const()[name = tensor<string, []>("input_1_pad_0"), val = tensor<int32, [4]>([1, 1, 1, 1])];
            tensor<int32, [2]> input_1_strides_0 = const()[name = tensor<string, []>("input_1_strides_0"), val = tensor<int32, [2]>([2, 2])];
            tensor<int32, [2]> input_1_dilations_0 = const()[name = tensor<string, []>("input_1_dilations_0"), val = tensor<int32, [2]>([1, 1])];
            tensor<int32, []> input_1_groups_0 = const()[name = tensor<string, []>("input_1_groups_0"), val = tensor<int32, []>(1)];
            tensor<string, []> image_to_fp16_dtype_0 = const()[name = tensor<string, []>("image_to_fp16_dtype_0"), val = tensor<string, []>("fp16")];
            tensor<fp16, [16, 3, 3, 3]> model_0_conv_weight_to_fp16 = const()[name = tensor<string, []>("model_0_conv_weight_to_fp16"), val = tensor<fp16, [16, 3, 3, 3]>(BLOBFILE(path = tensor<string, []>("@model_path/weights/weight.bin"), offset = tensor<uint64, []>(64)))];
            tensor<fp16, [16]> model_0_conv_bias_to_fp16 = const()[name = tensor<string, []>("model_0_conv_bias_to_fp16"), val = tensor<fp16, [16]>(BLOBFILE(path = tensor<string, []>("@model_path/weights/weight.bin"), offset = tensor<uint64, []>(1024)))];
            tensor<fp16, [1, 3, 320, 320]> image_to_fp16 = cast(dtype = image_to_fp16_dtype_0, x = image__scaled__)[name = tensor<string, []>("cast_16")];
            tensor<fp16, [1, 16, 160, 160]> input_1_cast_fp16 = conv(bias = model_0_conv_bias_to_fp16, dilations = input_1_dilations_0, groups = input_1_groups_0, pad = input_1_pad_0, pad_type = input_1_pad_type_0, strides = input_1_strides_0, weight = model_0_conv_weight_to_fp16, x = image_to_fp16)[name = tensor<string, []>("input_1_cast_fp16")];
            tensor<fp16, [1, 16, 160, 160]> input_3_cast_fp16 = silu(x = input_1_cast_fp16)[name = tensor<string, []>("input_3_cast_fp16")];
            tensor<string, []> input_5_pad_type_0 = const()[name = tensor<string, []>("input_5_pad_type_0"), val = tensor<string, []>("custom")];
            tensor<int32, [4]> input_5_pad_0 = const()[name = tensor<string, []>("input_5_pad_0"), val = tensor<int32, [4]>([1, 1, 1, 1])];
            tensor<int32, [2]> input_5_strides_0 = const()[name = tensor<string, []>("input_5_strides_0"), val = tensor<int32, [2]>([2, 2])];
            tensor<int32, [2]> input_5_dilations_0 = const()[name = tensor<string, []>("input_5_dilations_0"), val = tensor<int32, [2]>([1, 1])];
            tensor<int32, []> input_5_groups_0 = const()[name = tensor<string, []>("input_5_groups_0"), val = tensor<int32, []>(1)];
            tensor<fp16, [32, 16, 3, 3]> model_1_conv_weight_to_fp16 = const()[name = tensor<string, []>("model_1_conv_weight_to_fp16"), val = tensor<fp16, [32, 16, 3, 3]>(BLOBFILE(path = tensor<string, []>("@model_path/weights/weight.bin"), offset = tensor<uint64, []>(1152)))];
            tensor<fp16, [32]> model_1_conv_bias_to_fp16 = const()[name = tensor<string, []>("model_1_conv_bias_to_fp16"), val = tensor<fp16, [32]>(BLOBFILE(path = tensor<string, []>("@model_path/weights/weight.bin"), offset = tensor<uint64, []>(10432)))];
            tensor<fp16, [1, 32, 80, 80]> input_5_cast_fp16 = conv(bias = model_1_conv_bias_to_fp16, dilations = input_5_dilations_0, groups = input_5_groups_0, pad = input_5_pad_0, pad_type = input_5_pad_type_0, strides = input_5_strides_0, weight = model_1_conv_weight_to_fp16, x = input_3_cast_fp16)[name = tensor<string, []>("input_5_cast_fp16")];
            tensor<fp16, [1, 32, 80, 80]> input_7_cast_fp16 = silu(x = input_5_cast_fp16)[name = tensor<string, []>("input_7_cast_fp16")];
            tensor<int32, []> var_68 = const()[name = tensor<string, []>("op_68"), val = tensor<int32, []>(1)];
            tensor<string, []> input_9_pad_type_0 = const()[name = tensor<string, []>("input_9_pad_type_0"), val = tensor<string, []>("valid")];
            tensor<int32, [2]> input_9_strides_0 = const()[name = tensor<string, []>("input_9_strides_0"), val = tensor<int32, [2]>([1, 1])];
            tensor<int32, [4]> input_9_pad_0 = const()[name = tensor<string, []>("input_9_pad_0"), val = tensor<int32, [4]>([0, 0, 0, 0])];
            tensor<int32, [2]> input_9_dilations_0 = const()[name = tensor<string, []>("input_9_dilations_0"), val = tensor<int32, [2]>([1, 1])];
            tensor<int32, []> input_9_groups_0 = const()[name = tensor<string, []>("input_9_groups_0"), val = tensor<int32, []>(1)];
            tensor<fp16, [32, 32, 1, 1]> model_2_cv1_conv_weight_to_fp16 = const()[name = tensor<string, []>("model_2_cv1_conv_weight_to_fp16"), val = tensor<fp16, [32, 32, 1, 1]>(BLOBFILE(path = tensor<string, []>("@model_path/weights/weight.bin"), offset = tensor<uint64, []>(10560)))];
            tensor<fp16, [32]> model_2_cv1_conv_bias_to_fp16 = const()[name = tensor<string, []>("model_2_cv1_conv_bias_to_fp16"), val = tensor<fp16, [32]>(BLOBFILE(path = tensor<string, []>("@model_path/weights/weight.bin"), offset = tensor<uint64, []>(12672)))];
            tensor<fp16, [1, 32, 80, 80]> input_9_cast_fp16 = conv(bias = model_2_cv1_conv_bias_to_fp16, dilations = input_9_dilations_0, groups = input_9_groups_0, pad = input_9_pad_0, pad_type = input_9_pad_type_0, strides = input_9_strides_0, weight = model_2_cv1_conv_weight_to_fp16, x = input_7_cast_fp16)[name = tensor<string, []>("input_9_cast_fp16")];
            tensor<fp16, [1, 32, 80, 80]> var_81_cast_fp16 = silu(x = input_9_cast_fp16)[name = tensor<string, []>("op_81_cast_fp16")];
            tensor<int32, [2]> var_82 = const()[name = tensor<string, []>("op_82"), val = tensor<int32, [2]>([16, 16])];
            tensor<int32, []> var_83_axis_0 = const()[name = tensor<string, []>("op_83_axis_0"), val = tensor<int32, []>(1)];
            tensor<fp16, [1, 16, 80, 80]> var_83_cast_fp16_0, tensor<fp16, [1, 16, 80, 80]> var_83_cast_fp16_1 = split(axis = var_83_axis_0, split_sizes = var_82, x = var_81_cast_fp16)[name = tensor<string, []>("op_83_cast_fp16")];
            tensor<string, []> input_13_pad_type_0 = const()[name = tensor<string, []>("input_13_pad_type_0"), val = tensor<string, []>("custom")];
            tensor<int32, [4]> input_13_pad_0 = const()[name = tensor<string, []>("input_13_pad_0"), val = tensor<int32, [4]>([1, 1, 1, 1])];
            tensor<int32, [2]> input_13_strides_0 = const()[name = tensor<string, []>("input_13_strides_0"), val = tensor<int32, [2]>([1, 1])];
            tensor<int32, [2]> input_13_dilations_0 = const()[name = tensor<string, []>("input_13_dilations_0"), val = tensor<int32, [2]>([1, 1])];
            tensor<int32, []> input_13_groups_0 = const()[name = tensor<string, []>("input_13_groups_0"), val = tensor<int32, []>(1)];
            tensor<fp16, [16, 16, 3, 3]> model_2_m_0_cv1_conv_weight_to_fp16 = const()[name = tensor<string, []>("model_2_m_0_cv1_conv_weight_to_fp16"), val = tensor<fp16, [16, 16, 3, 3]>(BLOBFILE(path = tensor<string, []>("@model_path/weights/weight.bin"), offset = tensor<uint64, []>(12800)))];
            tensor<fp16, [16]> model_2_m_0_cv1_conv_bias_to_fp16 = const()[name = tensor<string, []>("model_2_m_0_cv1_conv_bias_to_fp16"), val = tensor<fp16, [16]>(BLOBFILE(path = tensor<string, []>("@model_path/weights/weight.bin"), offset = tensor<uint64, []>(17472)))];
            tensor<fp16, [1, 16, 80, 80]> input_13_cast_fp16 = conv(bias = model_2_m_0_cv1_conv_bias_to_fp16, dilations = input_13_dilations_0, groups = input_13_groups_0, pad = input_13_pad_0, pad_type = input_13_pad_type_0, strides = input_13_strides_0, weight = model_2_m_0_cv1_conv_weight_to_fp16, x = var_83_cast_fp16_1)[name = tensor<string, []>("input_13_cast_fp16")];
            tensor<fp16, [1, 16, 80, 80]> input_15_cast_fp16 = silu(x = input_13_cast_fp16)[name = tensor<string, []>("input_15_cast_fp16")];
            tensor<string, []> input_17_pad_type_0 = const()[name = tensor<string, []>("input_17_pad_type_0"), val = tensor<string, []>("custom")];
            tensor<int32, [4]> input_17_pad_0 = const()[name = tensor<string, []>("input_17_pad_0"), val = tensor<int32, [4]>([1, 1, 1, 1])];
            tensor<int32, [2]> input_17_strides_0 = const()[name = tensor<string, []>("input_17_strides_0"), val = tensor<int32, [2]>([1, 1])];
            tensor<int32, [2]> input_17_dilations_0 = const()[name = tensor<string, []>("input_17_dilations_0"), val = tensor<int32, [2]>([1, 1])];
            tensor<int32, []> input_17_groups_0 = const()[name = tensor<string, []>("input_17_groups_0"), val = tensor<int32, []>(1)];
            tensor<fp16, [16, 16, 3, 3]> model_2_m_0_cv2_conv_weight_to_fp16 = const()[name = tensor<string, []>("model_2_m_0_cv2_conv_weight_to_fp16"), val = tensor<fp16, [16, 16, 3, 3]>(BLOBFILE(path = tensor<string, []>("@model_path/weights/weight.bin"), offset = tensor<uint64, []>(17600)))];
            tensor<fp16, [16]> model_2_m_0_cv2_conv_bias_to_fp16 = const()[name = tensor<string, []>("model_2_m_0_cv2_conv_bias_to_fp16"), val = tensor<fp16, [16]>(BLOBFILE(path = tensor<string, []>("@model_path/weights/weight.bin"), offset = tensor<uint64, []>(22272)))];
            tensor<fp16, [1, 16, 80, 80]> input_17_cast_fp16 = conv(bias = model_2_m_0_cv2_conv_bias_to_fp16, dilations = input_17_dilations_0, groups = input_17_groups_0, pad = input_17_pad_0, pad_type = input_17_pad_type_0, strides = input_17_strides_0, weight = model_2_m_0_cv2_conv_weight_to_fp16, x = input_15_cast_fp16)[name = tensor<string, []>("input_17_cast_fp16")];
            tensor<fp16, [1, 16, 80, 80]> var_105_cast_fp16 = silu(x = input_17_cast_fp16)[name = tensor<string, []>("op_105_cast_fp16")];
            tensor<fp16, [1, 16, 80, 80]> var_106_cast_fp16 = add(x = var_83_cast_fp16_1, y = var_105_cast_fp16)[name = tensor<string, []>("op_106_cast_fp16")];
            tensor<bool, []> input_19_interleave_0 = const()[name = tensor<string, []>("input_19_interleave_0"), val = tensor<bool, []>(false)];
            tensor<fp16, [1, 48, 80, 80]> input_19_cast_fp16 = concat(axis = var_68, interleave = input_19_interleave_0, values = (var_83_cast_fp16_0, var_83_cast_fp16_1, var_106_cast_fp16))[name = tensor<string, []>("input_19_cast_fp16")];
            tensor<string, []> input_21_pad_type_0 = const()[name = tensor<string, []>("input_21_pad_type_0"), val = tensor<string, []>("valid")];
            tensor<int32, [2]> input_21_strides_0 = const()[name = tensor<string, []>("input_21_strides_0"), val = tensor<int32, [2]>([1, 1])];
            tensor<int32, [4]> input_21_pad_0 = const()[name = tensor<string, []>("input_21_pad_0"), val = tensor<int32, [4]>([0, 0, 0, 0])];
            tensor<int32, [2]> input_21_dilations_0 = const()[name = tensor<string, []>("input_21_dilations_0"), val = tensor<int32, [2]>([1, 1])];
            tensor<int32, []> input_21_groups_0 = const()[name = tensor<string, []>("input_21_groups_0"), val = tensor<int32, []>(1)];
            tensor<fp16, [32, 48, 1, 1]> model_2_cv2_conv_weight_to_fp16 = const()[name = tensor<string, []>("model_2_cv2_conv_weight_to_fp16"), val = tensor<fp16, [32, 48, 1, 1]>(BLOBFILE(path = tensor<string, []>("@model_path/weights/weight.bin"), offset = tensor<uint64, []>(22400)))];
            tensor<fp16, [32]> model_2_cv2_conv_bias_to_fp16 = const()[name = tensor<string, []>("model_2_cv2_conv_bias_to_fp16"), val = tensor<fp16, [32]>(BLOBFILE(path = tensor<string, []>("@model_path/weights/weight.bin"), offset = tensor<uint64, []>(25536)))];
            tensor<fp16, [1, 32, 80, 80]> input_21_cast_fp16 = conv(bias = model_2_cv2_conv_bias_to_fp16, dilations = input_21_dilations_0, groups = input_21_groups_0, pad = input_21_pad_0, pad_type = input_21_pad_type_0, strides = input_21_strides_0, weight = model_2_cv2_conv_weight_to_fp16, x = input_19_cast_fp16)[name = tensor<string, []>("input_21_cast_fp16")];
            tensor<fp16, [1, 32, 80, 80]> input_23_cast_fp16 = silu(x = input_21_cast_fp16)[name = tensor<string, []>("input_23_cast_fp16")];
            tensor<string, []> input_25_pad_type_0 = const()[name = tensor<string, []>("input_25_pad_type_0"), val = tensor<string, []>("custom")];
            tensor<int32, [4]> input_25_pad_0 = const()[name = tensor<string, []>("input_25_pad_0"), val = tensor<int32, [4]>([1, 1, 1, 1])];
            tensor<int32, [2]> input_25_strides_0 = const()[name = tensor<string, []>("input_25_strides_0"), val = tensor<int32, [2]>([2, 2])];
            tensor<int32, [2]> input_25_dilations_0 = const()[name = tensor<string, []>("input_25_dilations_0"), val = tensor<int32, [2]>([1, 1])];
            tensor<int32, []> input_25_groups_0 = const()[name = tensor<string, []>("input_25_groups_0"), val = tensor<int32, []>(1)];
            tensor<fp16, [64, 32, 3, 3]> model_3_conv_weight_to_fp16 = const()[name = tensor<string, []>("model_3_conv_weight_to_fp16"), val = tensor<fp16, [64, 32, 3, 3]>(BLOBFILE(path = tensor<string, []>("@model_path/weights/weight.bin"), offset = tensor<uint64, []>(25664)))];
            tensor<fp16, [64]> model_3_conv_bias_to_fp16 = const()[name = tensor<string, []>("model_3_conv_bias_to_fp16"), val = tensor<fp16, [64]>(BLOBFILE(path = tensor<string, []>("@model_path/weights/weight.bin"), offset = tensor<uint64, []>(62592)))];
            tensor<fp16, [1, 64, 40, 40]> input_25_cast_fp16 = conv(bias = model_3_conv_bias_to_fp16, dilations = input_25_dilations_0, groups = input_25_groups_0, pad = input_25_pad_0, pad_type = input_25_pad_type_0, strides = input_25_strides_0, weight = model_3_conv_weight_to_fp16, x = input_23_cast_fp16)[name = tensor<string, []>("input_25_cast_fp16")];
            tensor<fp16, [1, 64, 40, 40]> input_27_cast_fp16 = silu(x = input_25_cast_fp16)[name = tensor<string, []>("input_27_cast_fp16")];
            tensor<int32, []> var_136 = const()[name = tensor<string, []>("op_136"), val = tensor<int32, []>(1)];
            tensor<string, []> input_29_pad_type_0 = const()[name = tensor<string, []>("input_29_pad_type_0"), val = tensor<string, []>("valid")];
            tensor<int32, [2]> input_29_strides_0 = const()[name = tensor<string, []>("input_29_strides_0"), val = tensor<int32, [2]>([1, 1])];
            tensor<int32, [4]> input_29_pad_0 = const()[name = tensor<string, []>("input_29_pad_0"), val = tensor<int32, [4]>([0, 0, 0, 0])];
            tensor<int32, [2]> input_29_dilations_0 = const()[name = tensor<string, []>("input_29_dilations_0"), val = tensor<int32, [2]>([1, 1])];
            tensor<int32, []> input_29_groups_0 = const()[name = tensor<string, []>("input_29_groups_0"), val = tensor<int32, []>(1)];
            tensor<fp16, [64, 64, 1, 1]> model_4_cv1_conv_weight_to_fp16 = const()[name = tensor<string, []>("model_4_cv1_conv_weight_to_fp16"), val = tensor<fp16, [64, 64, 1, 1]>(BLOBFILE(path = tensor<string, []>("@model_path/weights/weight.bin"), offset = tensor<uint64, []>(62784)))];
            tensor<fp16, [64]> model_4_cv1_conv_bias_to_fp16 = const()[name = tensor<string, []>("model_4_cv1_conv_bias_to_fp16"), val = tensor<fp16, [64]>(BLOBFILE(path = tensor<string, []>("@model_path/weights/weight.bin"), offset = tensor<uint64, []>(71040)))];
            tensor<fp16, [1, 64, 40, 40]> input_29_cast_fp16 = conv(bias = model_4_cv1_conv_bias_to_fp16, dilations = input_29_dilations_0, groups = input_29_groups_0, pad = input_29_pad_0, pad_type = input_29_pad_type_0, strides = input_29_strides_0, weight = model_4_cv1_conv_weight_to_fp16, x = input_27_cast_fp16)[name = tensor<string, []>("input_29_cast_fp16")];
            tensor<fp16, [1, 64, 40, 40]> var_151_cast_fp16 = silu(x = input_29_cast_fp16)[name = tensor<string, []>("op_151_cast_fp16")];
            tensor<int32, [2]> var_152 = const()[name = tensor<string, []>("op_152"), val = tensor<int32, [2]>([32, 32])];
            tensor<int32, []> var_153_axis_0 = const()[name = tensor<string, []>("op_153_axis_0"), val = tensor<int32, []>(1)];
            tensor<fp16, [1, 32, 40, 40]> var_153_cast_fp16_0, tensor<fp16, [1, 32, 40, 40]> var_153_cast_fp16_1 = split(axis = var_153_axis_0, split_sizes = var_152, x = var_151_cast_fp16)[name = tensor<string, []>("op_153_cast_fp16")];
            tensor<string, []> input_33_pad_type_0 = const()[name = tensor<string, []>("input_33_pad_type_0"), val = tensor<string, []>("custom")];
            tensor<int32, [4]> input_33_pad_0 = const()[name = tensor<string, []>("input_33_pad_0"), val = tensor<int32, [4]>([1, 1, 1, 1])];
            tensor<int32, [2]> input_33_strides_0 = const()[name = tensor<string, []>("input_33_strides_0"), val = tensor<int32, [2]>([1, 1])];
            tensor<int32, [2]> input_33_dilations_0 = const()[name = tensor<string, []>("input_33_dilations_0"), val = tensor<int32, [2]>([1, 1])];
            tensor<int32, []> input_33_groups_0 = const()[name = tensor<string, []>("input_33_groups_0"), val = tensor<int32, []>(1)];
            tensor<fp16, [32, 32, 3, 3]> model_4_m_0_cv1_conv_weight_to_fp16 = const()[name = tensor<string, []>("model_4_m_0_cv1_conv_weight_to_fp16"), val = tensor<fp16, [32, 32, 3, 3]>(BLOBFILE(path = tensor<string, []>("@model_path/weights/weight.bin"), offset = tensor<uint64, []>(71232)))];
            tensor<fp16, [32]> model_4_m_0_cv1_conv_bias_to_fp16 = const()[name = tensor<string, []>("model_4_m_0_cv1_conv_bias_to_fp16"), val = tensor<fp16, [32]>(BLOBFILE(path = tensor<string, []>("@model_path/weights/weight.bin"), offset = tensor<uint64, []>(89728)))];
            tensor<fp16, [1, 32, 40, 40]> input_33_cast_fp16 = conv(bias = model_4_m_0_cv1_conv_bias_to_fp16, dilations = input_33_dilations_0, groups = input_33_groups_0, pad = input_33_pad_0, pad_type = input_33_pad_type_0, strides = input_33_strides_0, weight = model_4_m_0_cv1_conv_weight_to_fp16, x = var_153_cast_fp16_1)[name = tensor<string, []>("input_33_cast_fp16")];
            tensor<fp16, [1, 32, 40, 40]> input_35_cast_fp16 = silu(x = input_33_cast_fp16)[name = tensor<string, []>("input_35_cast_fp16")];
            tensor<string, []> input_37_pad_type_0 = const()[name = tensor<string, []>("input_37_pad_type_0"), val = tensor<string, []>("custom")];
            tensor<int32, [4]> input_37_pad_0 = const()[name = tensor<string, []>("input_37_pad_0"), val = tensor<int32, [4]>([1, 1, 1, 1])];
            tensor<int32, [2]> input_37_strides_0 = const()[name = tensor<string, []>("input_37_strides_0"), val = tensor<int32, [2]>([1, 1])];
            tensor<int32, [2]> input_37_dilations_0 = const()[name = tensor<string, []>("input_37_dilations_0"), val = tensor<int32, [2]>([1, 1])];
            tensor<int32, []> input_37_groups_0 = const()[name = tensor<string, []>("input_37_groups_0"), val = tensor<int32, []>(1)];
            tensor<fp16, [32, 32, 3, 3]> model_4_m_0_cv2_conv_weight_to_fp16 = const()[name = tensor<string, []>("model_4_m_0_cv2_conv_weight_to_fp16"), val = tensor<fp16, [32, 32, 3, 3]>(BLOBFILE(path = tensor<string, []>("@model_path/weights/weight.bin"), offset = tensor<uint64, []>(89856)))];
            tensor<fp16, [32]> model_4_m_0_cv2_conv_bias_to_fp16 = const()[name = tensor<string, []>("model_4_m_0_cv2_conv_bias_to_fp16"), val = tensor<fp16, [32]>(BLOBFILE(path = tensor<string, []>("@model_path/weights/weight.bin"), offset = tensor<uint64, []>(108352)))];
            tensor<fp16, [1, 32, 40, 40]> input_37_cast_fp16 = conv(bias = model_4_m_0_cv2_conv_bias_to_fp16, dilations = input_37_dilations_0, groups = input_37_groups_0, pad = input_37_pad_0, pad_type = input_37_pad_type_0, strides = input_37_strides_0, weight = model_4_m_0_cv2_conv_weight_to_fp16, x = input_35_cast_fp16)[name = tensor<string, []>("input_37_cast_fp16")];
            tensor<fp16, [1, 32, 40, 40]> var_175_cast_fp16 = silu(x = input_37_cast_fp16)[name = tensor<string, []>("op_175_cast_fp16")];
            tensor<fp16, [1, 32, 40, 40]> input_39_cast_fp16 = add(x = var_153_cast_fp16_1, y = var_175_cast_fp16)[name = tensor<string, []>("input_39_cast_fp16")];
            tensor<string, []> input_41_pad_type_0 = const()[name = tensor<string, []>("input_41_pad_type_0"), val = tensor<string, []>("custom")];
            tensor<int32, [4]> input_41_pad_0 = const()[name = tensor<string, []>("input_41_pad_0"), val = tensor<int32, [4]>([1, 1, 1, 1])];
            tensor<int32, [2]> input_41_strides_0 = const()[name = tensor<string, []>("input_41_strides_0"), val = tensor<int32, [2]>([1, 1])];
            tensor<int32, [2]> input_41_dilations_0 = const()[name = tensor<string, []>("input_41_dilations_0"), val = tensor<int32, [2]>([1, 1])];
            tensor<int32, []> input_41_groups_0 = const()[name = tensor<string, []>("input_41_groups_0"), val = tensor<int32, []>(1)];
            tensor<fp16, [32, 32, 3, 3]> model_4_m_1_cv1_conv_weight_to_fp16 = const()[name = tensor<string, []>("model_4_m_1_cv1_conv_weight_to_fp16"), val = tensor<fp16, [32, 32, 3, 3]>(BLOBFILE(path = tensor<string, []>("@model_path/weights/weight.bin"), offset = tensor<uint64, []>(108480)))];
            tensor<fp16, [32]> model_4_m_1_cv1_conv_bias_to_fp16 = const()[name = tensor<string, []>("model_4_m_1_cv1_conv_bias_to_fp16"), val = tensor<fp16, [32]>(BLOBFILE(path = tensor<string, []>("@model_path/weights/weight.bin"), offset = tensor<uint64, []>(126976)))];
            tensor<fp16, [1, 32, 40, 40]> input_41_cast_fp16 = conv(bias = model_4_m_1_cv1_conv_bias_to_fp16, dilations = input_41_dilations_0, groups = input_41_groups_0, pad = input_41_pad_0, pad_type = input_41_pad_type_0, strides = input_41_strides_0, weight = model_4_m_1_cv1_conv_weight_to_fp16, x = input_39_cast_fp16)[name = tensor<string, []>("input_41_cast_fp16")];
            tensor<fp16, [1, 32, 40, 40]> input_43_cast_fp16 = silu(x = input_41_cast_fp16)[name = tensor<string, []>("input_43_cast_fp16")];
            tensor<string, []> input_45_pad_type_0 = const()[name = tensor<string, []>("input_45_pad_type_0"), val = tensor<string, []>("custom")];
            tensor<int32, [4]> input_45_pad_0 = const()[name = tensor<string, []>("input_45_pad_0"), val = tensor<int32, [4]>([1, 1, 1, 1])];
            tensor<int32, [2]> input_45_strides_0 = const()[name = tensor<string, []>("input_45_strides_0"), val = tensor<int32, [2]>([1, 1])];
            tensor<int32, [2]> input_45_dilations_0 = const()[name = tensor<string, []>("input_45_dilations_0"), val = tensor<int32, [2]>([1, 1])];
            tensor<int32, []> input_45_groups_0 = const()[name = tensor<string, []>("input_45_groups_0"), val = tensor<int32, []>(1)];
            tensor<fp16, [32, 32, 3, 3]> model_4_m_1_cv2_conv_weight_to_fp16 = const()[name = tensor<string, []>("model_4_m_1_cv2_conv_weight_to_fp16"), val = tensor<fp16, [32, 32, 3, 3]>(BLOBFILE(path = tensor<string, []>("@model_path/weights/weight.bin"), offset = tensor<uint64, []>(127104)))];
            tensor<fp16, [32]> model_4_m_1_cv2_conv_bias_to_fp16 = const()[name = tensor<string, []>("model_4_m_1_cv2_conv_bias_to_fp16"), val = tensor<fp16, [32]>(BLOBFILE(path = tensor<string, []>("@model_path/weights/weight.bin"), offset = tensor<uint64, []>(145600)))];
            tensor<fp16, [1, 32, 40, 40]> input_45_cast_fp16 = conv(bias = model_4_m_1_cv2_conv_bias_to_fp16, dilations = input_45_dilations_0, groups = input_45_groups_0, pad = input_45_pad_0, pad_type = input_45_pad_type_0, strides = input_45_strides_0, weight = model_4_m_1_cv2_conv_weight_to_fp16, x = input_43_cast_fp16)[name = tensor<string, []>("input_45_cast_fp16")];
            tensor<fp16, [1, 32, 40, 40]> var_196_cast_fp16 = silu(x = input_45_cast_fp16)[name = tensor<string, []>("op_196_cast_fp16")];
            tensor<fp16, [1, 32, 40, 40]> var_197_cast_fp16 = add(x = input_39_cast_fp16, y = var_196_cast_fp16)[name = tensor<string, []>("op_197_cast_fp16")];
            tensor<bool, []> input_47_interleave_0 = const()[name = tensor<string, []>("input_47_interleave_0"), val = tensor<bool, []>(false)];
            tensor<fp16, [1, 128, 40, 40]> input_47_cast_fp16 = concat(axis = var_136, interleave = input_47_interleave_0, values = (var_153_cast_fp16_0, var_153_cast_fp16_1, input_39_cast_fp16, var_197_cast_fp16))[name = tensor<string, []>("input_47_cast_fp16")];
            tensor<string, []> input_49_pad_type_0 = const()[name = tensor<string, []>("input_49_pad_type_0"), val = tensor<string, []>("valid")];
            tensor<int32, [2]> input_49_strides_0 = const()[name = tensor<string, []>("input_49_strides_0"), val = tensor<int32, [2]>([1, 1])];
            tensor<int32, [4]> input_49_pad_0 = const()[name = tensor<string, []>("input_49_pad_0"), val = tensor<int32, [4]>([0, 0, 0, 0])];
            tensor<int32, [2]> input_49_dilations_0 = const()[name = tensor<string, []>("input_49_dilations_0"), val = tensor<int32, [2]>([1, 1])];
            tensor<int32, []> input_49_groups_0 = const()[name = tensor<string, []>("input_49_groups_0"), val = tensor<int32, []>(1)];
            tensor<fp16, [64, 128, 1, 1]> model_4_cv2_conv_weight_to_fp16 = const()[name = tensor<string, []>("model_4_cv2_conv_weight_to_fp16"), val = tensor<fp16, [64, 128, 1, 1]>(BLOBFILE(path = tensor<string, []>("@model_path/weights/weight.bin"), offset = tensor<uint64, []>(145728)))];
            tensor<fp16, [64]> model_4_cv2_conv_bias_to_fp16 = const()[name = tensor<string, []>("model_4_cv2_conv_bias_to_fp16"), val = tensor<fp16, [64]>(BLOBFILE(path = tensor<string, []>("@model_path/weights/weight.bin"), offset = tensor<uint64, []>(162176)))];
            tensor<fp16, [1, 64, 40, 40]> input_49_cast_fp16 = conv(bias = model_4_cv2_conv_bias_to_fp16, dilations = input_49_dilations_0, groups = input_49_groups_0, pad = input_49_pad_0, pad_type = input_49_pad_type_0, strides = input_49_strides_0, weight = model_4_cv2_conv_weight_to_fp16, x = input_47_cast_fp16)[name = tensor<string, []>("input_49_cast_fp16")];
            tensor<fp16, [1, 64, 40, 40]> input_51_cast_fp16 = silu(x = input_49_cast_fp16)[name = tensor<string, []>("input_51_cast_fp16")];
            tensor<string, []> input_53_pad_type_0 = const()[name = tensor<string, []>("input_53_pad_type_0"), val = tensor<string, []>("custom")];
            tensor<int32, [4]> input_53_pad_0 = const()[name = tensor<string, []>("input_53_pad_0"), val = tensor<int32, [4]>([1, 1, 1, 1])];
            tensor<int32, [2]> input_53_strides_0 = const()[name = tensor<string, []>("input_53_strides_0"), val = tensor<int32, [2]>([2, 2])];
            tensor<int32, [2]> input_53_dilations_0 = const()[name = tensor<string, []>("input_53_dilations_0"), val = tensor<int32, [2]>([1, 1])];
            tensor<int32, []> input_53_groups_0 = const()[name = tensor<string, []>("input_53_groups_0"), val = tensor<int32, []>(1)];
            tensor<fp16, [128, 64, 3, 3]> model_5_conv_weight_to_fp16 = const()[name = tensor<string, []>("model_5_conv_weight_to_fp16"), val = tensor<fp16, [128, 64, 3, 3]>(BLOBFILE(path = tensor<string, []>("@model_path/weights/weight.bin"), offset = tensor<uint64, []>(162368)))];
            tensor<fp16, [128]> model_5_conv_bias_to_fp16 = const()[name = tensor<string, []>("model_5_conv_bias_to_fp16"), val = tensor<fp16, [128]>(BLOBFILE(path = tensor<string, []>("@model_path/weights/weight.bin"), offset = tensor<uint64, []>(309888)))];
            tensor<fp16, [1, 128, 20, 20]> input_53_cast_fp16 = conv(bias = model_5_conv_bias_to_fp16, dilations = input_53_dilations_0, groups = input_53_groups_0, pad = input_53_pad_0, pad_type = input_53_pad_type_0, strides = input_53_strides_0, weight = model_5_conv_weight_to_fp16, x = input_51_cast_fp16)[name = tensor<string, []>("input_53_cast_fp16")];
            tensor<fp16, [1, 128, 20, 20]> input_55_cast_fp16 = silu(x = input_53_cast_fp16)[name = tensor<string, []>("input_55_cast_fp16")];
            tensor<int32, []> var_227 = const()[name = tensor<string, []>("op_227"), val = tensor<int32, []>(1)];
            tensor<string, []> input_57_pad_type_0 = const()[name = tensor<string, []>("input_57_pad_type_0"), val = tensor<string, []>("valid")];
            tensor<int32, [2]> input_57_strides_0 = const()[name = tensor<string, []>("input_57_strides_0"), val = tensor<int32, [2]>([1, 1])];
            tensor<int32, [4]> input_57_pad_0 = const()[name = tensor<string, []>("input_57_pad_0"), val = tensor<int32, [4]>([0, 0, 0, 0])];
            tensor<int32, [2]> input_57_dilations_0 = const()[name = tensor<string, []>("input_57_dilations_0"), val = tensor<int32, [2]>([1, 1])];
            tensor<int32, []> input_57_groups_0 = const()[name = tensor<string, []>("input_57_groups_0"), val = tensor<int32, []>(1)];
            tensor<fp16, [128, 128, 1, 1]> model_6_cv1_conv_weight_to_fp16 = const()[name = tensor<string, []>("model_6_cv1_conv_weight_to_fp16"), val = tensor<fp16, [128, 128, 1, 1]>(BLOBFILE(path = tensor<string, []>("@model_path/weights/weight.bin"), offset = tensor<uint64, []>(310208)))];
            tensor<fp16, [128]> model_6_cv1_conv_bias_to_fp16 = const()[name = tensor<string, []>("model_6_cv1_conv_bias_to_fp16"), val = tensor<fp16, [128]>(BLOBFILE(path = tensor<string, []>("@model_path/weights/weight.bin"), offset = tensor<uint64, []>(343040)))];
            tensor<fp16, [1, 128, 20, 20]> input_57_cast_fp16 = conv(bias = model_6_cv1_conv_bias_to_fp16, dilations = input_57_dilations_0, groups = input_57_groups_0, pad = input_57_pad_0, pad_type = input_57_pad_type_0, strides = input_57_strides_0, weight = model_6_cv1_conv_weight_to_fp16, x = input_55_cast_fp16)[name = tensor<string, []>("input_57_cast_fp16")];
            tensor<fp16, [1, 128, 20, 20]> var_242_cast_fp16 = silu(x = input_57_cast_fp16)[name = tensor<string, []>("op_242_cast_fp16")];
            tensor<int32, [2]> var_243 = const()[name = tensor<string, []>("op_243"), val = tensor<int32, [2]>([64, 64])];
            tensor<int32, []> var_244_axis_0 = const()[name = tensor<string, []>("op_244_axis_0"), val = tensor<int32, []>(1)];
            tensor<fp16, [1, 64, 20, 20]> var_244_cast_fp16_0, tensor<fp16, [1, 64, 20, 20]> var_244_cast_fp16_1 = split(axis = var_244_axis_0, split_sizes = var_243, x = var_242_cast_fp16)[name = tensor<string, []>("op_244_cast_fp16")];
            tensor<string, []> input_61_pad_type_0 = const()[name = tensor<string, []>("input_61_pad_type_0"), val = tensor<string, []>("custom")];
            tensor<int32, [4]> input_61_pad_0 = const()[name = tensor<string, []>("input_61_pad_0"), val = tensor<int32, [4]>([1, 1, 1, 1])];
            tensor<int32, [2]> input_61_strides_0 = const()[name = tensor<string, []>("input_61_strides_0"), val = tensor<int32, [2]>([1, 1])];
            tensor<int32, [2]> input_61_dilations_0 = const()[name = tensor<string, []>("input_61_dilations_0"), val = tensor<int32, [2]>([1, 1])];
            tensor<int32, []> input_61_groups_0 = const()[name = tensor<string, []>("input_61_groups_0"), val = tensor<int32, []>(1)];
            tensor<fp16, [64, 64, 3, 3]> model_6_m_0_cv1_conv_weight_to_fp16 = const()[name = tensor<string, []>("model_6_m_0_cv1_conv_weight_to_fp16"), val = tensor<fp16, [64, 64, 3, 3]>(BLOBFILE(path = tensor<string, []>("@model_path/weights/weight.bin"), offset = tensor<uint64, []>(343360)))];
            tensor<fp16, [64]> model_6_m_0_cv1_conv_bias_to_fp16 = const()[name = tensor<string, []>("model_6_m_0_cv1_conv_bias_to_fp16"), val = tensor<fp16, [64]>(BLOBFILE(path = tensor<string, []>("@model_path/weights/weight.bin"), offset = tensor<uint64, []>(417152)))];
            tensor<fp16, [1, 64, 20, 20]> input_61_cast_fp16 = conv(bias = model_6_m_0_cv1_conv_bias_to_fp16, dilations = input_61_dilations_0, groups = input_61_groups_0, pad = input_61_pad_0, pad_type = input_61_pad_type_0, strides = input_61_strides_0, weight = model_6_m_0_cv1_conv_weight_to_fp16, x = var_244_cast_fp16_1)[name = tensor<string, []>("input_61_cast_fp16")];
            tensor<fp16, [1, 64, 20, 20]> input_63_cast_fp16 = silu(x = input_61_cast_fp16)[name = tensor<string, []>("input_63_cast_fp16")];
            tensor<string, []> input_65_pad_type_0 = const()[name = tensor<string, []>("input_65_pad_type_0"), val = tensor<string, []>("custom")];
            tensor<int32, [4]> input_65_pad_0 = const()[name = tensor<string, []>("input_65_pad_0"), val = tensor<int32, [4]>([1, 1, 1, 1])];
            tensor<int32, [2]> input_65_strides_0 = const()[name = tensor<string, []>("input_65_strides_0"), val = tensor<int32, [2]>([1, 1])];
            tensor<int32, [2]> input_65_dilations_0 = const()[name = tensor<string, []>("input_65_dilations_0"), val = tensor<int32, [2]>([1, 1])];
            tensor<int32, []> input_65_groups_0 = const()[name = tensor<string, []>("input_65_groups_0"), val = tensor<int32, []>(1)];
            tensor<fp16, [64, 64, 3, 3]> model_6_m_0_cv2_conv_weight_to_fp16 = const()[name = tensor<string, []>("model_6_m_0_cv2_conv_weight_to_fp16"), val = tensor<fp16, [64, 64, 3, 3]>(BLOBFILE(path = tensor<string, []>("@model_path/weights/weight.bin"), offset = tensor<uint64, []>(417344)))];
            tensor<fp16, [64]> model_6_m_0_cv2_conv_bias_to_fp16 = const()[name = tensor<string, []>("model_6_m_0_cv2_conv_bias_to_fp16"), val = tensor<fp16, [64]>(BLOBFILE(path = tensor<string, []>("@model_path/weights/weight.bin"), offset = tensor<uint64, []>(491136)))];
            tensor<fp16, [1, 64, 20, 20]> input_65_cast_fp16 = conv(bias = model_6_m_0_cv2_conv_bias_to_fp16, dilations = input_65_dilations_0, groups = input_65_groups_0, pad = input_65_pad_0, pad_type = input_65_pad_type_0, strides = input_65_strides_0, weight = model_6_m_0_cv2_conv_weight_to_fp16, x = input_63_cast_fp16)[name = tensor<string, []>("input_65_cast_fp16")];
            tensor<fp16, [1, 64, 20, 20]> var_266_cast_fp16 = silu(x = input_65_cast_fp16)[name = tensor<string, []>("op_266_cast_fp16")];
            tensor<fp16, [1, 64, 20, 20]> input_67_cast_fp16 = add(x = var_244_cast_fp16_1, y = var_266_cast_fp16)[name = tensor<string, []>("input_67_cast_fp16")];
            tensor<string, []> input_69_pad_type_0 = const()[name = tensor<string, []>("input_69_pad_type_0"), val = tensor<string, []>("custom")];
            tensor<int32, [4]> input_69_pad_0 = const()[name = tensor<string, []>("input_69_pad_0"), val = tensor<int32, [4]>([1, 1, 1, 1])];
            tensor<int32, [2]> input_69_strides_0 = const()[name = tensor<string, []>("input_69_strides_0"), val = tensor<int32, [2]>([1, 1])];
            tensor<int32, [2]> input_69_dilations_0 = const()[name = tensor<string, []>("input_69_dilations_0"), val = tensor<int32, [2]>([1, 1])];
            tensor<int32, []> input_69_groups_0 = const()[name = tensor<string, []>("input_69_groups_0"), val = tensor<int32, []>(1)];
            tensor<fp16, [64, 64, 3, 3]> model_6_m_1_cv1_conv_weight_to_fp16 = const()[name = tensor<string, []>("model_6_m_1_cv1_conv_weight_to_fp16"), val = tensor<fp16, [64, 64, 3, 3]>(BLOBFILE(path = tensor<string, []>("@model_path/weights/weight.bin"), offset = tensor<uint64, []>(491328)))];
            tensor<fp16, [64]> model_6_m_1_cv1_conv_bias_to_fp16 = const()[name = tensor<string, []>("model_6_m_1_cv1_conv_bias_to_fp16"), val = tensor<fp16, [64]>(BLOBFILE(path = tensor<string, []>("@model_path/weights/weight.bin"), offset = tensor<uint64, []>(565120)))];
            tensor<fp16, [1, 64, 20, 20]> input_69_cast_fp16 = conv(bias = model_6_m_1_cv1_conv_bias_to_fp16, dilations = input_69_dilations_0, groups = input_69_groups_0, pad = input_69_pad_0, pad_type = input_69_pad_type_0, strides = input_69_strides_0, weight = model_6_m_1_cv1_conv_weight_to_fp16, x = input_67_cast_fp16)[name = tensor<string, []>("input_69_cast_fp16")];
            tensor<fp16, [1, 64, 20, 20]> input_71_cast_fp16 = silu(x = input_69_cast_fp16)[name = tensor<string, []>("input_71_cast_fp16")];
            tensor<string, []> input_73_pad_type_0 = const()[name = tensor<string, []>("input_73_pad_type_0"), val = tensor<string, []>("custom")];
            tensor<int32, [4]> input_73_pad_0 = const()[name = tensor<string, []>("input_73_pad_0"), val = tensor<int32, [4]>([1, 1, 1, 1])];
            tensor<int32, [2]> input_73_strides_0 = const()[name = tensor<string, []>("input_73_strides_0"), val = tensor<int32, [2]>([1, 1])];
            tensor<int32, [2]> input_73_dilations_0 = const()[name = tensor<string, []>("input_73_dilations_0"), val = tensor<int32, [2]>([1, 1])];
            tensor<int32, []> input_73_groups_0 = const()[name = tensor<string, []>("input_73_groups_0"), val = tensor<int32, []>(1)];
            tensor<fp16, [64, 64, 3, 3]> model_6_m_1_cv2_conv_weight_to_fp16 = const()[name = tensor<string, []>("model_6_m_1_cv2_conv_weight_to_fp16"), val = tensor<fp16, [64, 64, 3, 3]>(BLOBFILE(path = tensor<string, []>("@model_path/weights/weight.bin"), offset = tensor<uint64, []>(565312)))];
            tensor<fp16, [64]> model_6_m_1_cv2_conv_bias_to_fp16 = const()[name = tensor<string, []>("model_6_m_1_cv2_conv_bias_to_fp16"), val = tensor<fp16, [64]>(BLOBFILE(path = tensor<string, []>("@model_path/weights/weight.bin"), offset = tensor<uint64, []>(639104)))];
            tensor<fp16, [1, 64, 20, 20]> input_73_cast_fp16 = conv(bias = model_6_m_1_cv2_conv_bias_to_fp16, dilations = input_73_dilations_0, groups = input_73_groups_0, pad = input_73_pad_0, pad_type = input_73_pad_type_0, strides = input_73_strides_0, weight = model_6_m_1_cv2_conv_weight_to_fp16, x = input_71_cast_fp16)[name = tensor<string, []>("input_73_cast_fp16")];
            tensor<fp16, [1, 64, 20, 20]> var_287_cast_fp16 = silu(x = input_73_cast_fp16)[name = tensor<string, []>("op_287_cast_fp16")];
            tensor<fp16, [1, 64, 20, 20]> var_288_cast_fp16 = add(x = input_67_cast_fp16, y = var_287_cast_fp16)[name = tensor<string, []>("op_288_cast_fp16")];
            tensor<bool, []> input_75_interleave_0 = const()[name = tensor<string, []>("input_75_interleave_0"), val = tensor<bool, []>(false)];
            tensor<fp16, [1, 256, 20, 20]> input_75_cast_fp16 = concat(axis = var_227, interleave = input_75_interleave_0, values = (var_244_cast_fp16_0, var_244_cast_fp16_1, input_67_cast_fp16, var_288_cast_fp16))[name = tensor<string, []>("input_75_cast_fp16")];
            tensor<string, []> input_77_pad_type_0 = const()[name = tensor<string, []>("input_77_pad_type_0"), val = tensor<string, []>("valid")];
            tensor<int32, [2]> input_77_strides_0 = const()[name = tensor<string, []>("input_77_strides_0"), val = tensor<int32, [2]>([1, 1])];
            tensor<int32, [4]> input_77_pad_0 = const()[name = tensor<string, []>("input_77_pad_0"), val = tensor<int32, [4]>([0, 0, 0, 0])];
            tensor<int32, [2]> input_77_dilations_0 = const()[name = tensor<string, []>("input_77_dilations_0"), val = tensor<int32, [2]>([1, 1])];
            tensor<int32, []> input_77_groups_0 = const()[name = tensor<string, []>("input_77_groups_0"), val = tensor<int32, []>(1)];
            tensor<fp16, [128, 256, 1, 1]> model_6_cv2_conv_weight_to_fp16 = const()[name = tensor<string, []>("model_6_cv2_conv_weight_to_fp16"), val = tensor<fp16, [128, 256, 1, 1]>(BLOBFILE(path = tensor<string, []>("@model_path/weights/weight.bin"), offset = tensor<uint64, []>(639296)))];
            tensor<fp16, [128]> model_6_cv2_conv_bias_to_fp16 = const()[name = tensor<string, []>("model_6_cv2_conv_bias_to_fp16"), val = tensor<fp16, [128]>(BLOBFILE(path = tensor<string, []>("@model_path/weights/weight.bin"), offset = tensor<uint64, []>(704896)))];
            tensor<fp16, [1, 128, 20, 20]> input_77_cast_fp16 = conv(bias = model_6_cv2_conv_bias_to_fp16, dilations = input_77_dilations_0, groups = input_77_groups_0, pad = input_77_pad_0, pad_type = input_77_pad_type_0, strides = input_77_strides_0, weight = model_6_cv2_conv_weight_to_fp16, x = input_75_cast_fp16)[name = tensor<string, []>("input_77_cast_fp16")];
            tensor<fp16, [1, 128, 20, 20]> input_79_cast_fp16 = silu(x = input_77_cast_fp16)[name = tensor<string, []>("input_79_cast_fp16")];
            tensor<string, []> input_81_pad_type_0 = const()[name = tensor<string, []>("input_81_pad_type_0"), val = tensor<string, []>("custom")];
            tensor<int32, [4]> input_81_pad_0 = const()[name = tensor<string, []>("input_81_pad_0"), val = tensor<int32, [4]>([1, 1, 1, 1])];
            tensor<int32, [2]> input_81_strides_0 = const()[name = tensor<string, []>("input_81_strides_0"), val = tensor<int32, [2]>([2, 2])];
            tensor<int32, [2]> input_81_dilations_0 = const()[name = tensor<string, []>("input_81_dilations_0"), val = tensor<int32, [2]>([1, 1])];
            tensor<int32, []> input_81_groups_0 = const()[name = tensor<string, []>("input_81_groups_0"), val = tensor<int32, []>(1)];
            tensor<fp16, [256, 128, 3, 3]> model_7_conv_weight_to_fp16 = const()[name = tensor<string, []>("model_7_conv_weight_to_fp16"), val = tensor<fp16, [256, 128, 3, 3]>(BLOBFILE(path = tensor<string, []>("@model_path/weights/weight.bin"), offset = tensor<uint64, []>(705216)))];
            tensor<fp16, [256]> model_7_conv_bias_to_fp16 = const()[name = tensor<string, []>("model_7_conv_bias_to_fp16"), val = tensor<fp16, [256]>(BLOBFILE(path = tensor<string, []>("@model_path/weights/weight.bin"), offset = tensor<uint64, []>(1295104)))];
            tensor<fp16, [1, 256, 10, 10]> input_81_cast_fp16 = conv(bias = model_7_conv_bias_to_fp16, dilations = input_81_dilations_0, groups = input_81_groups_0, pad = input_81_pad_0, pad_type = input_81_pad_type_0, strides = input_81_strides_0, weight = model_7_conv_weight_to_fp16, x = input_79_cast_fp16)[name = tensor<string, []>("input_81_cast_fp16")];
            tensor<fp16, [1, 256, 10, 10]> input_83_cast_fp16 = silu(x = input_81_cast_fp16)[name = tensor<string, []>("input_83_cast_fp16")];
            tensor<int32, []> var_318 = const()[name = tensor<string, []>("op_318"), val = tensor<int32, []>(1)];
            tensor<string, []> input_85_pad_type_0 = const()[name = tensor<string, []>("input_85_pad_type_0"), val = tensor<string, []>("valid")];
            tensor<int32, [2]> input_85_strides_0 = const()[name = tensor<string, []>("input_85_strides_0"), val = tensor<int32, [2]>([1, 1])];
            tensor<int32, [4]> input_85_pad_0 = const()[name = tensor<string, []>("input_85_pad_0"), val = tensor<int32, [4]>([0, 0, 0, 0])];
            tensor<int32, [2]> input_85_dilations_0 = const()[name = tensor<string, []>("input_85_dilations_0"), val = tensor<int32, [2]>([1, 1])];
            tensor<int32, []> input_85_groups_0 = const()[name = tensor<string, []>("input_85_groups_0"), val = tensor<int32, []>(1)];
            tensor<fp16, [256, 256, 1, 1]> model_8_cv1_conv_weight_to_fp16 = const()[name = tensor<string, []>("model_8_cv1_conv_weight_to_fp16"), val = tensor<fp16, [256, 256, 1, 1]>(BLOBFILE(path = tensor<string, []>("@model_path/weights/weight.bin"), offset = tensor<uint64, []>(1295680)))];
            tensor<fp16, [256]> model_8_cv1_conv_bias_to_fp16 = const()[name = tensor<string, []>("model_8_cv1_conv_bias_to_fp16"), val = tensor<fp16, [256]>(BLOBFILE(path = tensor<string, []>("@model_path/weights/weight.bin"), offset = tensor<uint64, []>(1426816)))];
            tensor<fp16, [1, 256, 10, 10]> input_85_cast_fp16 = conv(bias = model_8_cv1_conv_bias_to_fp16, dilations = input_85_dilations_0, groups = input_85_groups_0, pad = input_85_pad_0, pad_type = input_85_pad_type_0, strides = input_85_strides_0, weight = model_8_cv1_conv_weight_to_fp16, x = input_83_cast_fp16)[name = tensor<string, []>("input_85_cast_fp16")];
            tensor<fp16, [1, 256, 10, 10]> var_331_cast_fp16 = silu(x = input_85_cast_fp16)[name = tensor<string, []>("op_331_cast_fp16")];
            tensor<int32, [2]> var_332 = const()[name = tensor<string, []>("op_332"), val = tensor<int32, [2]>([128, 128])];
            tensor<int32, []> var_333_axis_0 = const()[name = tensor<string, []>("op_333_axis_0"), val = tensor<int32, []>(1)];
            tensor<fp16, [1, 128, 10, 10]> var_333_cast_fp16_0, tensor<fp16, [1, 128, 10, 10]> var_333_cast_fp16_1 = split(axis = var_333_axis_0, split_sizes = var_332, x = var_331_cast_fp16)[name = tensor<string, []>("op_333_cast_fp16")];
            tensor<string, []> input_89_pad_type_0 = const()[name = tensor<string, []>("input_89_pad_type_0"), val = tensor<string, []>("custom")];
            tensor<int32, [4]> input_89_pad_0 = const()[name = tensor<string, []>("input_89_pad_0"), val = tensor<int32, [4]>([1, 1, 1, 1])];
            tensor<int32, [2]> input_89_strides_0 = const()[name = tensor<string, []>("input_89_strides_0"), val = tensor<int32, [2]>([1, 1])];
            tensor<int32, [2]> input_89_dilations_0 = const()[name = tensor<string, []>("input_89_dilations_0"), val = tensor<int32, [2]>([1, 1])];
            tensor<int32, []> input_89_groups_0 = const()[name = tensor<string, []>("input_89_groups_0"), val = tensor<int32, []>(1)];
            tensor<fp16, [128, 128, 3, 3]> model_8_m_0_cv1_conv_weight_to_fp16 = const()[name = tensor<string, []>("model_8_m_0_cv1_conv_weight_to_fp16"), val = tensor<fp16, [128, 128, 3, 3]>(BLOBFILE(path = tensor<string, []>("@model_path/weights/weight.bin"), offset = tensor<uint64, []>(1427392)))];
            tensor<fp16, [128]> model_8_m_0_cv1_conv_bias_to_fp16 = const()[name = tensor<string, []>("model_8_m_0_cv1_conv_bias_to_fp16"), val = tensor<fp16, [128]>(BLOBFILE(path = tensor<string, []>("@model_path/weights/weight.bin"), offset = tensor<uint64, []>(1722368)))];
            tensor<fp16, [1, 128, 10, 10]> input_89_cast_fp16 = conv(bias = model_8_m_0_cv1_conv_bias_to_fp16, dilations = input_89_dilations_0, groups = input_89_groups_0, pad = input_89_pad_0, pad_type = input_89_pad_type_0, strides = input_89_strides_0, weight = model_8_m_0_cv1_conv_weight_to_fp16, x = var_333_cast_fp16_1)[name = tensor<string, []>("input_89_cast_fp16")];
            tensor<fp16, [1, 128, 10, 10]> input_91_cast_fp16 = silu(x = input_89_cast_fp16)[name = tensor<string, []>("input_91_cast_fp16")];
            tensor<string, []> input_93_pad_type_0 = const()[name = tensor<string, []>("input_93_pad_type_0"), val = tensor<string, []>("custom")];
            tensor<int32, [4]> input_93_pad_0 = const()[name = tensor<string, []>("input_93_pad_0"), val = tensor<int32, [4]>([1, 1, 1, 1])];
            tensor<int32, [2]> input_93_strides_0 = const()[name = tensor<string, []>("input_93_strides_0"), val = tensor<int32, [2]>([1, 1])];
            tensor<int32, [2]> input_93_dilations_0 = const()[name = tensor<string, []>("input_93_dilations_0"), val = tensor<int32, [2]>([1, 1])];
            tensor<int32, []> input_93_groups_0 = const()[name = tensor<string, []>("input_93_groups_0"), val = tensor<int32, []>(1)];
            tensor<fp16, [128, 128, 3, 3]> model_8_m_0_cv2_conv_weight_to_fp16 = const()[name = tensor<string, []>("model_8_m_0_cv2_conv_weight_to_fp16"), val = tensor<fp16, [128, 128, 3, 3]>(BLOBFILE(path = tensor<string, []>("@model_path/weights/weight.bin"), offset = tensor<uint64, []>(1722688)))];
            tensor<fp16, [128]> model_8_m_0_cv2_conv_bias_to_fp16 = const()[name = tensor<string, []>("model_8_m_0_cv2_conv_bias_to_fp16"), val = tensor<fp16, [128]>(BLOBFILE(path = tensor<string, []>("@model_path/weights/weight.bin"), offset = tensor<uint64, []>(2017664)))];
            tensor<fp16, [1, 128, 10, 10]> input_93_cast_fp16 = conv(bias = model_8_m_0_cv2_conv_bias_to_fp16, dilations = input_93_dilations_0, groups = input_93_groups_0, pad = input_93_pad_0, pad_type = input_93_pad_type_0, strides = input_93_strides_0, weight = model_8_m_0_cv2_conv_weight_to_fp16, x = input_91_cast_fp16)[name = tensor<string, []>("input_93_cast_fp16")];
            tensor<fp16, [1, 128, 10, 10]> var_355_cast_fp16 = silu(x = input_93_cast_fp16)[name = tensor<string, []>("op_355_cast_fp16")];
            tensor<fp16, [1, 128, 10, 10]> var_356_cast_fp16 = add(x = var_333_cast_fp16_1, y = var_355_cast_fp16)[name = tensor<string, []>("op_356_cast_fp16")];
            tensor<bool, []> input_95_interleave_0 = const()[name = tensor<string, []>("input_95_interleave_0"), val = tensor<bool, []>(false)];
            tensor<fp16, [1, 384, 10, 10]> input_95_cast_fp16 = concat(axis = var_318, interleave = input_95_interleave_0, values = (var_333_cast_fp16_0, var_333_cast_fp16_1, var_356_cast_fp16))[name = tensor<string, []>("input_95_cast_fp16")];
            tensor<string, []> input_97_pad_type_0 = const()[name = tensor<string, []>("input_97_pad_type_0"), val = tensor<string, []>("valid")];
            tensor<int32, [2]> input_97_strides_0 = const()[name = tensor<string, []>("input_97_strides_0"), val = tensor<int32, [2]>([1, 1])];
            tensor<int32, [4]> input_97_pad_0 = const()[name = tensor<string, []>("input_97_pad_0"), val = tensor<int32, [4]>([0, 0, 0, 0])];
            tensor<int32, [2]> input_97_dilations_0 = const()[name = tensor<string, []>("input_97_dilations_0"), val = tensor<int32, [2]>([1, 1])];
            tensor<int32, []> input_97_groups_0 = const()[name = tensor<string, []>("input_97_groups_0"), val = tensor<int32, []>(1)];
            tensor<fp16, [256, 384, 1, 1]> model_8_cv2_conv_weight_to_fp16 = const()[name = tensor<string, []>("model_8_cv2_conv_weight_to_fp16"), val = tensor<fp16, [256, 384, 1, 1]>(BLOBFILE(path = tensor<string, []>("@model_path/weights/weight.bin"), offset = tensor<uint64, []>(2017984)))];
            tensor<fp16, [256]> model_8_cv2_conv_bias_to_fp16 = const()[name = tensor<string, []>("model_8_cv2_conv_bias_to_fp16"), val = tensor<fp16, [256]>(BLOBFILE(path = tensor<string, []>("@model_path/weights/weight.bin"), offset = tensor<uint64, []>(2214656)))];
            tensor<fp16, [1, 256, 10, 10]> input_97_cast_fp16 = conv(bias = model_8_cv2_conv_bias_to_fp16, dilations = input_97_dilations_0, groups = input_97_groups_0, pad = input_97_pad_0, pad_type = input_97_pad_type_0, strides = input_97_strides_0, weight = model_8_cv2_conv_weight_to_fp16, x = input_95_cast_fp16)[name = tensor<string, []>("input_97_cast_fp16")];
            tensor<fp16, [1, 256, 10, 10]> input_99_cast_fp16 = silu(x = input_97_cast_fp16)[name = tensor<string, []>("input_99_cast_fp16")];
            tensor<int32, []> var_373 = const()[name = tensor<string, []>("op_373"), val = tensor<int32, []>(1)];
            tensor<string, []> input_101_pad_type_0 = const()[name = tensor<string, []>("input_101_pad_type_0"), val = tensor<string, []>("valid")];
            tensor<int32, [2]> input_101_strides_0 = const()[name = tensor<string, []>("input_101_strides_0"), val = tensor<int32, [2]>([1, 1])];
            tensor<int32, [4]> input_101_pad_0 = const()[name = tensor<string, []>("input_101_pad_0"), val = tensor<int32, [4]>([0, 0, 0, 0])];
            tensor<int32, [2]> input_101_dilations_0 = const()[name = tensor<string, []>("input_101_dilations_0"), val = tensor<int32, [2]>([1, 1])];
            tensor<int32, []> input_101_groups_0 = const()[name = tensor<string, []>("input_101_groups_0"), val = tensor<int32, []>(1)];
            tensor<fp16, [128, 256, 1, 1]> model_9_cv1_conv_weight_to_fp16 = const()[name = tensor<string, []>("model_9_cv1_conv_weight_to_fp16"), val = tensor<fp16, [128, 256, 1, 1]>(BLOBFILE(path = tensor<string, []>("@model_path/weights/weight.bin"), offset = tensor<uint64, []>(2215232)))];
            tensor<fp16, [128]> model_9_cv1_conv_bias_to_fp16 = const()[name = tensor<string, []>("model_9_cv1_conv_bias_to_fp16"), val = tensor<fp16, [128]>(BLOBFILE(path = tensor<string, []>("@model_path/weights/weight.bin"), offset = tensor<uint64, []>(2280832)))];
            tensor<fp16, [1, 128, 10, 10]> input_101_cast_fp16 = conv(bias = model_9_cv1_conv_bias_to_fp16, dilations = input_101_dilations_0, groups = input_101_groups_0, pad = input_101_pad_0, pad_type = input_101_pad_type_0, strides = input_101_strides_0, weight = model_9_cv1_conv_weight_to_fp16, x = input_99_cast_fp16)[name = tensor<string, []>("input_101_cast_fp16")];
            tensor<int32, [2]> var_384 = const()[name = tensor<string, []>("op_384"), val = tensor<int32, [2]>([5, 5])];
            tensor<int32, [2]> var_385 = const()[name = tensor<string, []>("op_385"), val = tensor<int32, [2]>([1, 1])];
            tensor<string, []> input_103_pad_type_0 = const()[name = tensor<string, []>("input_103_pad_type_0"), val = tensor<string, []>("custom")];
            tensor<int32, [4]> input_103_pad_0 = const()[name = tensor<string, []>("input_103_pad_0"), val = tensor<int32, [4]>([2, 2, 2, 2])];
            tensor<bool, []> input_103_ceil_mode_0 = const()[name = tensor<string, []>("input_103_ceil_mode_0"), val = tensor<bool, []>(false)];
            tensor<fp16, [1, 128, 10, 10]> input_103_cast_fp16 = max_pool(ceil_mode = input_103_ceil_mode_0, kernel_sizes = var_384, pad = input_103_pad_0, pad_type = input_103_pad_type_0, strides = var_385, x = input_101_cast_fp16)[name = tensor<string, []>("input_103_cast_fp16")];
            tensor<int32, [2]> var_389 = const()[name = tensor<string, []>("op_389"), val = tensor<int32, [2]>([5, 5])];
            tensor<int32, [2]> var_390 = const()[name = tensor<string, []>("op_390"), val = tensor<int32, [2]>([1, 1])];
            tensor<string, []> input_105_pad_type_0 = const()[name = tensor<string, []>("input_105_pad_type_0"), val = tensor<string, []>("custom")];
            tensor<int32, [4]> input_105_pad_0 = const()[name = tensor<string, []>("input_105_pad_0"), val = tensor<int32, [4]>([2, 2, 2, 2])];
            tensor<bool, []> input_105_ceil_mode_0 = const()[name = tensor<string, []>("input_105_ceil_mode_0"), val = tensor<bool, []>(false)];
            tensor<fp16, [1, 128, 10, 10]> input_105_cast_fp16 = max_pool(ceil_mode = input_105_ceil_mode_0, kernel_sizes = var_389, pad = input_105_pad_0, pad_type = input_105_pad_type_0, strides = var_390, x = input_103_cast_fp16)[name = tensor<string, []>("input_105_cast_fp16")];
            tensor<int32, [2]> var_394 = const()[name = tensor<string, []>("op_394"), val = tensor<int32, [2]>([5, 5])];
            tensor<int32, [2]> var_395 = const()[name = tensor<string, []>("op_395"), val = tensor<int32, [2]>([1, 1])];
            tensor<string, []> var_398_pad_type_0 = const()[name = tensor<string, []>("op_398_pad_type_0"), val = tensor<string, []>("custom")];
            tensor<int32, [4]> var_398_pad_0 = const()[name = tensor<string, []>("op_398_pad_0"), val = tensor<int32, [4]>([2, 2, 2, 2])];
            tensor<bool, []> var_398_ceil_mode_0 = const()[name = tensor<string, []>("op_398_ceil_mode_0"), val = tensor<bool, []>(false)];
            tensor<fp16, [1, 128, 10, 10]> var_398_cast_fp16 = max_pool(ceil_mode = var_398_ceil_mode_0, kernel_sizes = var_394, pad = var_398_pad_0, pad_type = var_398_pad_type_0, strides = var_395, x = input_105_cast_fp16)[name = tensor<string, []>("op_398_cast_fp16")];
            tensor<bool, []> input_107_interleave_0 = const()[name = tensor<string, []>("input_107_interleave_0"), val = tensor<bool, []>(false)];
            tensor<fp16, [1, 512, 10, 10]> input_107_cast_fp16 = concat(axis = var_373, interleave = input_107_interleave_0, values = (input_101_cast_fp16, input_103_cast_fp16, input_105_cast_fp16, var_398_cast_fp16))[name = tensor<string, []>("input_107_cast_fp16")];
            tensor<string, []> input_109_pad_type_0 = const()[name = tensor<string, []>("input_109_pad_type_0"), val = tensor<string, []>("valid")];
            tensor<int32, [2]> input_109_strides_0 = const()[name = tensor<string, []>("input_109_strides_0"), val = tensor<int32, [2]>([1, 1])];
            tensor<int32, [4]> input_109_pad_0 = const()[name = tensor<string, []>("input_109_pad_0"), val = tensor<int32, [4]>([0, 0, 0, 0])];
            tensor<int32, [2]> input_109_dilations_0 = const()[name = tensor<string, []>("input_109_dilations_0"), val = tensor<int32, [2]>([1, 1])];
            tensor<int32, []> input_109_groups_0 = const()[name = tensor<string, []>("input_109_groups_0"), val = tensor<int32, []>(1)];
            tensor<fp16, [256, 512, 1, 1]> model_9_cv2_conv_weight_to_fp16 = const()[name = tensor<string, []>("model_9_cv2_conv_weight_to_fp16"), val = tensor<fp16, [256, 512, 1, 1]>(BLOBFILE(path = tensor<string, []>("@model_path/weights/weight.bin"), offset = tensor<uint64, []>(2281152)))];
            tensor<fp16, [256]> model_9_cv2_conv_bias_to_fp16 = const()[name = tensor<string, []>("model_9_cv2_conv_bias_to_fp16"), val = tensor<fp16, [256]>(BLOBFILE(path = tensor<string, []>("@model_path/weights/weight.bin"), offset = tensor<uint64, []>(2543360)))];
            tensor<fp16, [1, 256, 10, 10]> input_109_cast_fp16 = conv(bias = model_9_cv2_conv_bias_to_fp16, dilations = input_109_dilations_0, groups = input_109_groups_0, pad = input_109_pad_0, pad_type = input_109_pad_type_0, strides = input_109_strides_0, weight = model_9_cv2_conv_weight_to_fp16, x = input_107_cast_fp16)[name = tensor<string, []>("input_109_cast_fp16")];
            tensor<fp16, [1, 256, 10, 10]> input_111_cast_fp16 = silu(x = input_109_cast_fp16)[name = tensor<string, []>("input_111_cast_fp16")];
            tensor<fp32, []> var_413_scale_factor_height_0 = const()[name = tensor<string, []>("op_413_scale_factor_height_0"), val = tensor<fp32, []>(0x1p+1)];
            tensor<fp32, []> var_413_scale_factor_width_0 = const()[name = tensor<string, []>("op_413_scale_factor_width_0"), val = tensor<fp32, []>(0x1p+1)];
            tensor<fp16, [1, 256, 20, 20]> var_413_cast_fp16 = upsample_nearest_neighbor(scale_factor_height = var_413_scale_factor_height_0, scale_factor_width = var_413_scale_factor_width_0, x = input_111_cast_fp16)[name = tensor<string, []>("op_413_cast_fp16")];
            tensor<int32, []> var_414 = const()[name = tensor<string, []>("op_414"), val = tensor<int32, []>(1)];
            tensor<bool, []> input_113_interleave_0 = const()[name = tensor<string, []>("input_113_interleave_0"), val = tensor<bool, []>(false)];
            tensor<fp16, [1, 384, 20, 20]> input_113_cast_fp16 = concat(axis = var_414, interleave = input_113_interleave_0, values = (var_413_cast_fp16, input_79_cast_fp16))[name = tensor<string, []>("input_113_cast_fp16")];
            tensor<int32, []> var_421 = const()[name = tensor<string, []>("op_421"), val = tensor<int32, []>(1)];
            tensor<string, []> input_115_pad_type_0 = const()[name = tensor<string, []>("input_115_pad_type_0"), val = tensor<string, []>("valid")];
            tensor<int32, [2]> input_115_strides_0 = const()[name = tensor<string, []>("input_115_strides_0"), val = tensor<int32, [2]>([1, 1])];
            tensor<int32, [4]> input_115_pad_0 = const()[name = tensor<string, []>("input_115_pad_0"), val = tensor<int32, [4]>([0, 0, 0, 0])];
            tensor<int32, [2]> input_115_dilations_0 = const()[name = tensor<string, []>("input_115_dilations_0"), val = tensor<int32, [2]>([1, 1])];
            tensor<int32, []> input_115_groups_0 = const()[name = tensor<string, []>("input_115_groups_0"), val = tensor<int32, []>(1)];
            tensor<fp16, [128, 384, 1, 1]> model_12_cv1_conv_weight_to_fp16 = const()[name = tensor<string, []>("model_12_cv1_conv_weight_to_fp16"), val = tensor<fp16, [128, 384, 1, 1]>(BLOBFILE(path = tensor<string, []>("@model_path/weights/weight.bin"), offset = tensor<uint64, []>(2543936)))];
            tensor<fp16, [128]> model_12_cv1_conv_bias_to_fp16 = const()[name = tensor<string, []>("model_12_cv1_conv_bias_to_fp16"), val = tensor<fp16, [128]>(BLOBFILE(path = tensor<string, []>("@model_path/weights/weight.bin"), offset = tensor<uint64, []>(2642304)))];
            tensor<fp16, [1, 128, 20, 20]> input_115_cast_fp16 = conv(bias = model_12_cv1_conv_bias_to_fp16, dilations = input_115_dilations_0, groups = input_115_groups_0, pad = input_115_pad_0, pad_type = input_115_pad_type_0, strides = input_115_strides_0, weight = model_12_cv1_conv_weight_to_fp16, x = input_113_cast_fp16)[name = tensor<string, []>("input_115_cast_fp16")];
            tensor<fp16, [1, 128, 20, 20]> var_434_cast_fp16 = silu(x = input_115_cast_fp16)[name = tensor<string, []>("op_434_cast_fp16")];
            tensor<int32, [2]> var_435 = const()[name = tensor<string, []>("op_435"), val = tensor<int32, [2]>([64, 64])];
            tensor<int32, []> var_436_axis_0 = const()[name = tensor<string, []>("op_436_axis_0"), val = tensor<int32, []>(1)];
            tensor<fp16, [1, 64, 20, 20]> var_436_cast_fp16_0, tensor<fp16, [1, 64, 20, 20]> var_436_cast_fp16_1 = split(axis = var_436_axis_0, split_sizes = var_435, x = var_434_cast_fp16)[name = tensor<string, []>("op_436_cast_fp16")];
            tensor<string, []> input_119_pad_type_0 = const()[name = tensor<string, []>("input_119_pad_type_0"), val = tensor<string, []>("custom")];
            tensor<int32, [4]> input_119_pad_0 = const()[name = tensor<string, []>("input_119_pad_0"), val = tensor<int32, [4]>([1, 1, 1, 1])];
            tensor<int32, [2]> input_119_strides_0 = const()[name = tensor<string, []>("input_119_strides_0"), val = tensor<int32, [2]>([1, 1])];
            tensor<int32, [2]> input_119_dilations_0 = const()[name = tensor<string, []>("input_119_dilations_0"), val = tensor<int32, [2]>([1, 1])];
            tensor<int32, []> input_119_groups_0 = const()[name = tensor<string, []>("input_119_groups_0"), val = tensor<int32, []>(1)];
            tensor<fp16, [64, 64, 3, 3]> model_12_m_0_cv1_conv_weight_to_fp16 = const()[name = tensor<string, []>("model_12_m_0_cv1_conv_weight_to_fp16"), val = tensor<fp16, [64, 64, 3, 3]>(BLOBFILE(path = tensor<string, []>("@model_path/weights/weight.bin"), offset = tensor<uint64, []>(2642624)))];
            tensor<fp16, [64]> model_12_m_0_cv1_conv_bias_to_fp16 = const()[name = tensor<string, []>("model_12_m_0_cv1_conv_bias_to_fp16"), val = tensor<fp16, [64]>(BLOBFILE(path = tensor<string, []>("@model_path/weights/weight.bin"), offset = tensor<uint64, []>(2716416)))];
            tensor<fp16, [1, 64, 20, 20]> input_119_cast_fp16 = conv(bias = model_12_m_0_cv1_conv_bias_to_fp16, dilations = input_119_dilations_0, groups = input_119_groups_0, pad = input_119_pad_0, pad_type = input_119_pad_type_0, strides = input_119_strides_0, weight = model_12_m_0_cv1_conv_weight_to_fp16, x = var_436_cast_fp16_1)[name = tensor<string, []>("input_119_cast_fp16")];
            tensor<fp16, [1, 64, 20, 20]> input_121_cast_fp16 = silu(x = input_119_cast_fp16)[name = tensor<string, []>("input_121_cast_fp16")];
            tensor<string, []> input_123_pad_type_0 = const()[name = tensor<string, []>("input_123_pad_type_0"), val = tensor<string, []>("custom")];
            tensor<int32, [4]> input_123_pad_0 = const()[name = tensor<string, []>("input_123_pad_0"), val = tensor<int32, [4]>([1, 1, 1, 1])];
            tensor<int32, [2]> input_123_strides_0 = const()[name = tensor<string, []>("input_123_strides_0"), val = tensor<int32, [2]>([1, 1])];
            tensor<int32, [2]> input_123_dilations_0 = const()[name = tensor<string, []>("input_123_dilations_0"), val = tensor<int32, [2]>([1, 1])];
            tensor<int32, []> input_123_groups_0 = const()[name = tensor<string, []>("input_123_groups_0"), val = tensor<int32, []>(1)];
            tensor<fp16, [64, 64, 3, 3]> model_12_m_0_cv2_conv_weight_to_fp16 = const()[name = tensor<string, []>("model_12_m_0_cv2_conv_weight_to_fp16"), val = tensor<fp16, [64, 64, 3, 3]>(BLOBFILE(path = tensor<string, []>("@model_path/weights/weight.bin"), offset = tensor<uint64, []>(2716608)))];
            tensor<fp16, [64]> model_12_m_0_cv2_conv_bias_to_fp16 = const()[name = tensor<string, []>("model_12_m_0_cv2_conv_bias_to_fp16"), val = tensor<fp16, [64]>(BLOBFILE(path = tensor<string, []>("@model_path/weights/weight.bin"), offset = tensor<uint64, []>(2790400)))];
            tensor<fp16, [1, 64, 20, 20]> input_123_cast_fp16 = conv(bias = model_12_m_0_cv2_conv_bias_to_fp16, dilations = input_123_dilations_0, groups = input_123_groups_0, pad = input_123_pad_0, pad_type = input_123_pad_type_0, strides = input_123_strides_0, weight = model_12_m_0_cv2_conv_weight_to_fp16, x = input_121_cast_fp16)[name = tensor<string, []>("input_123_cast_fp16")];
            tensor<fp16, [1, 64, 20, 20]> var_458_cast_fp16 = silu(x = input_123_cast_fp16)[name = tensor<string, []>("op_458_cast_fp16")];
            tensor<bool, []> input_125_interleave_0 = const()[name = tensor<string, []>("input_125_interleave_0"), val = tensor<bool, []>(false)];
            tensor<fp16, [1, 192, 20, 20]> input_125_cast_fp16 = concat(axis = var_421, interleave = input_125_interleave_0, values = (var_436_cast_fp16_0, var_436_cast_fp16_1, var_458_cast_fp16))[name = tensor<string, []>("input_125_cast_fp16")];
            tensor<string, []> input_127_pad_type_0 = const()[name = tensor<string, []>("input_127_pad_type_0"), val = tensor<string, []>("valid")];
            tensor<int32, [2]> input_127_strides_0 = const()[name = tensor<string, []>("input_127_strides_0"), val = tensor<int32, [2]>([1, 1])];
            tensor<int32, [4]> input_127_pad_0 = const()[name = tensor<string, []>("input_127_pad_0"), val = tensor<int32, [4]>([0, 0, 0, 0])];
            tensor<int32, [2]> input_127_dilations_0 = const()[name = tensor<string, []>("input_127_dilations_0"), val = tensor<int32, [2]>([1, 1])];
            tensor<int32, []> input_127_groups_0 = const()[name = tensor<string, []>("input_127_groups_0"), val = tensor<int32, []>(1)];
            tensor<fp16, [128, 192, 1, 1]> model_12_cv2_conv_weight_to_fp16 = const()[name = tensor<string, []>("model_12_cv2_conv_weight_to_fp16"), val = tensor<fp16, [128, 192, 1, 1]>(BLOBFILE(path = tensor<string, []>("@model_path/weights/weight.bin"), offset = tensor<uint64, []>(2790592)))];
            tensor<fp16, [128]> model_12_cv2_conv_bias_to_fp16 = const()[name = tensor<string, []>("model_12_cv2_conv_bias_to_fp16"), val = tensor<fp16, [128]>(BLOBFILE(path = tensor<string, []>("@model_path/weights/weight.bin"), offset = tensor<uint64, []>(2839808)))];
            tensor<fp16, [1, 128, 20, 20]> input_127_cast_fp16 = conv(bias = model_12_cv2_conv_bias_to_fp16, dilations = input_127_dilations_0, groups = input_127_groups_0, pad = input_127_pad_0, pad_type = input_127_pad_type_0, strides = input_127_strides_0, weight = model_12_cv2_conv_weight_to_fp16, x = input_125_cast_fp16)[name = tensor<string, []>("input_127_cast_fp16")];
            tensor<fp16, [1, 128, 20, 20]> input_129_cast_fp16 = silu(x = input_127_cast_fp16)[name = tensor<string, []>("input_129_cast_fp16")];
            tensor<fp32, []> var_473_scale_factor_height_0 = const()[name = tensor<string, []>("op_473_scale_factor_height_0"), val = tensor<fp32, []>(0x1p+1)];
            tensor<fp32, []> var_473_scale_factor_width_0 = const()[name = tensor<string, []>("op_473_scale_factor_width_0"), val = tensor<fp32, []>(0x1p+1)];
            tensor<fp16, [1, 128, 40, 40]> var_473_cast_fp16 = upsample_nearest_neighbor(scale_factor_height = var_473_scale_factor_height_0, scale_factor_width = var_473_scale_factor_width_0, x = input_129_cast_fp16)[name = tensor<string, []>("op_473_cast_fp16")];
            tensor<int32, []> var_474 = const()[name = tensor<string, []>("op_474"), val = tensor<int32, []>(1)];
            tensor<bool, []> input_131_interleave_0 = const()[name = tensor<string, []>("input_131_interleave_0"), val = tensor<bool, []>(false)];
            tensor<fp16, [1, 192, 40, 40]> input_131_cast_fp16 = concat(axis = var_474, interleave = input_131_interleave_0, values = (var_473_cast_fp16, input_51_cast_fp16))[name = tensor<string, []>("input_131_cast_fp16")];
            tensor<int32, []> var_481 = const()[name = tensor<string, []>("op_481"), val = tensor<int32, []>(1)];
            tensor<string, []> input_133_pad_type_0 = const()[name = tensor<string, []>("input_133_pad_type_0"), val = tensor<string, []>("valid")];
            tensor<int32, [2]> input_133_strides_0 = const()[name = tensor<string, []>("input_133_strides_0"), val = tensor<int32, [2]>([1, 1])];
            tensor<int32, [4]> input_133_pad_0 = const()[name = tensor<string, []>("input_133_pad_0"), val = tensor<int32, [4]>([0, 0, 0, 0])];
            tensor<int32, [2]> input_133_dilations_0 = const()[name = tensor<string, []>("input_133_dilations_0"), val = tensor<int32, [2]>([1, 1])];
            tensor<int32, []> input_133_groups_0 = const()[name = tensor<string, []>("input_133_groups_0"), val = tensor<int32, []>(1)];
            tensor<fp16, [64, 192, 1, 1]> model_15_cv1_conv_weight_to_fp16 = const()[name = tensor<string, []>("model_15_cv1_conv_weight_to_fp16"), val = tensor<fp16, [64, 192, 1, 1]>(BLOBFILE(path = tensor<string, []>("@model_path/weights/weight.bin"), offset = tensor<uint64, []>(2840128)))];
            tensor<fp16, [64]> model_15_cv1_conv_bias_to_fp16 = const()[name = tensor<string, []>("model_15_cv1_conv_bias_to_fp16"), val = tensor<fp16, [64]>(BLOBFILE(path = tensor<string, []>("@model_path/weights/weight.bin"), offset = tensor<uint64, []>(2864768)))];
            tensor<fp16, [1, 64, 40, 40]> input_133_cast_fp16 = conv(bias = model_15_cv1_conv_bias_to_fp16, dilations = input_133_dilations_0, groups = input_133_groups_0, pad = input_133_pad_0, pad_type = input_133_pad_type_0, strides = input_133_strides_0, weight = model_15_cv1_conv_weight_to_fp16, x = input_131_cast_fp16)[name = tensor<string, []>("input_133_cast_fp16")];
            tensor<fp16, [1, 64, 40, 40]> var_494_cast_fp16 = silu(x = input_133_cast_fp16)[name = tensor<string, []>("op_494_cast_fp16")];
            tensor<int32, [2]> var_495 = const()[name = tensor<string, []>("op_495"), val = tensor<int32, [2]>([32, 32])];
            tensor<int32, []> var_496_axis_0 = const()[name = tensor<string, []>("op_496_axis_0"), val = tensor<int32, []>(1)];
            tensor<fp16, [1, 32, 40, 40]> var_496_cast_fp16_0, tensor<fp16, [1, 32, 40, 40]> var_496_cast_fp16_1 = split(axis = var_496_axis_0, split_sizes = var_495, x = var_494_cast_fp16)[name = tensor<string, []>("op_496_cast_fp16")];
            tensor<string, []> input_137_pad_type_0 = const()[name = tensor<string, []>("input_137_pad_type_0"), val = tensor<string, []>("custom")];
            tensor<int32, [4]> input_137_pad_0 = const()[name = tensor<string, []>("input_137_pad_0"), val = tensor<int32, [4]>([1, 1, 1, 1])];
            tensor<int32, [2]> input_137_strides_0 = const()[name = tensor<string, []>("input_137_strides_0"), val = tensor<int32, [2]>([1, 1])];
            tensor<int32, [2]> input_137_dilations_0 = const()[name = tensor<string, []>("input_137_dilations_0"), val = tensor<int32, [2]>([1, 1])];
            tensor<int32, []> input_137_groups_0 = const()[name = tensor<string, []>("input_137_groups_0"), val = tensor<int32, []>(1)];
            tensor<fp16, [32, 32, 3, 3]> model_15_m_0_cv1_conv_weight_to_fp16 = const()[name = tensor<string, []>("model_15_m_0_cv1_conv_weight_to_fp16"), val = tensor<fp16, [32, 32, 3, 3]>(BLOBFILE(path = tensor<string, []>("@model_path/weights/weight.bin"), offset = tensor<uint64, []>(2864960)))];
            tensor<fp16, [32]> model_15_m_0_cv1_conv_bias_to_fp16 = const()[name = tensor<string, []>("model_15_m_0_cv1_conv_bias_to_fp16"), val = tensor<fp16, [32]>(BLOBFILE(path = tensor<string, []>("@model_path/weights/weight.bin"), offset = tensor<uint64, []>(2883456)))];
            tensor<fp16, [1, 32, 40, 40]> input_137_cast_fp16 = conv(bias = model_15_m_0_cv1_conv_bias_to_fp16, dilations = input_137_dilations_0, groups = input_137_groups_0, pad = input_137_pad_0, pad_type = input_137_pad_type_0, strides = input_137_strides_0, weight = model_15_m_0_cv1_conv_weight_to_fp16, x = var_496_cast_fp16_1)[name = tensor<string, []>("input_137_cast_fp16")];
            tensor<fp16, [1, 32, 40, 40]> input_139_cast_fp16 = silu(x = input_137_cast_fp16)[name = tensor<string, []>("input_139_cast_fp16")];
            tensor<string, []> input_141_pad_type_0 = const()[name = tensor<string, []>("input_141_pad_type_0"), val = tensor<string, []>("custom")];
            tensor<int32, [4]> input_141_pad_0 = const()[name = tensor<string, []>("input_141_pad_0"), val = tensor<int32, [4]>([1, 1, 1, 1])];
            tensor<int32, [2]> input_141_strides_0 = const()[name = tensor<string, []>("input_141_strides_0"), val = tensor<int32, [2]>([1, 1])];
            tensor<int32, [2]> input_141_dilations_0 = const()[name = tensor<string, []>("input_141_dilations_0"), val = tensor<int32, [2]>([1, 1])];
            tensor<int32, []> input_141_groups_0 = const()[name = tensor<string, []>("input_141_groups_0"), val = tensor<int32, []>(1)];
            tensor<fp16, [32, 32, 3, 3]> model_15_m_0_cv2_conv_weight_to_fp16 = const()[name = tensor<string, []>("model_15_m_0_cv2_conv_weight_to_fp16"), val = tensor<fp16, [32, 32, 3, 3]>(BLOBFILE(path = tensor<string, []>("@model_path/weights/weight.bin"), offset = tensor<uint64, []>(2883584)))];
            tensor<fp16, [32]> model_15_m_0_cv2_conv_bias_to_fp16 = const()[name = tensor<string, []>("model_15_m_0_cv2_conv_bias_to_fp16"), val = tensor<fp16, [32]>(BLOBFILE(path = tensor<string, []>("@model_path/weights/weight.bin"), offset = tensor<uint64, []>(2902080)))];
            tensor<fp16, [1, 32, 40, 40]> input_141_cast_fp16 = conv(bias = model_15_m_0_cv2_conv_bias_to_fp16, dilations = input_141_dilations_0, groups = input_141_groups_0, pad = input_141_pad_0, pad_type = input_141_pad_type_0, strides = input_141_strides_0, weight = model_15_m_0_cv2_conv_weight_to_fp16, x = input_139_cast_fp16)[name = tensor<string, []>("input_141_cast_fp16")];
            tensor<fp16, [1, 32, 40, 40]> var_518_cast_fp16 = silu(x = input_141_cast_fp16)[name = tensor<string, []>("op_518_cast_fp16")];
            tensor<bool, []> input_143_interleave_0 = const()[name = tensor<string, []>("input_143_interleave_0"), val = tensor<bool, []>(false)];
            tensor<fp16, [1, 96, 40, 40]> input_143_cast_fp16 = concat(axis = var_481, interleave = input_143_interleave_0, values = (var_496_cast_fp16_0, var_496_cast_fp16_1, var_518_cast_fp16))[name = tensor<string, []>("input_143_cast_fp16")];
            tensor<string, []> input_145_pad_type_0 = const()[name = tensor<string, []>("input_145_pad_type_0"), val = tensor<string, []>("valid")];
            tensor<int32, [2]> input_145_strides_0 = const()[name = tensor<string, []>("input_145_strides_0"), val = tensor<int32, [2]>([1, 1])];
            tensor<int32, [4]> input_145_pad_0 = const()[name = tensor<string, []>("input_145_pad_0"), val = tensor<int32, [4]>([0, 0, 0, 0])];
            tensor<int32, [2]> input_145_dilations_0 = const()[name = tensor<string, []>("input_145_dilations_0"), val = tensor<int32, [2]>([1, 1])];
            tensor<int32, []> input_145_groups_0 = const()[name = tensor<string, []>("input_145_groups_0"), val = tensor<int32, []>(1)];
            tensor<fp16, [64, 96, 1, 1]> model_15_cv2_conv_weight_to_fp16 = const()[name = tensor<string, []>("model_15_cv2_conv_weight_to_fp16"), val = tensor<fp16, [64, 96, 1, 1]>(BLOBFILE(path = tensor<string, []>("@model_path/weights/weight.bin"), offset = tensor<uint64, []>(2902208)))];
            tensor<fp16, [64]> model_15_cv2_conv_bias_to_fp16 = const()[name = tensor<string, []>("model_15_cv2_conv_bias_to_fp16"), val = tensor<fp16, [64]>(BLOBFILE(path = tensor<string, []>("@model_path/weights/weight.bin"), offset = tensor<uint64, []>(2914560)))];
            tensor<fp16, [1, 64, 40, 40]> input_145_cast_fp16 = conv(bias = model_15_cv2_conv_bias_to_fp16, dilations = input_145_dilations_0, groups = input_145_groups_0, pad = input_145_pad_0, pad_type = input_145_pad_type_0, strides = input_145_strides_0, weight = model_15_cv2_conv_weight_to_fp16, x = input_143_cast_fp16)[name = tensor<string, []>("input_145_cast_fp16")];
            tensor<fp16, [1, 64, 40, 40]> input_147_cast_fp16 = silu(x = input_145_cast_fp16)[name = tensor<string, []>("input_147_cast_fp16")];
            tensor<string, []> input_149_pad_type_0 = const()[name = tensor<string, []>("input_149_pad_type_0"), val = tensor<string, []>("custom")];
            tensor<int32, [4]> input_149_pad_0 = const()[name = tensor<string, []>("input_149_pad_0"), val = tensor<int32, [4]>([1, 1, 1, 1])];
            tensor<int32, [2]> input_149_strides_0 = const()[name = tensor<string, []>("input_149_strides_0"), val = tensor<int32, [2]>([2, 2])];
            tensor<int32, [2]> input_149_dilations_0 = const()[name = tensor<string, []>("input_149_dilations_0"), val = tensor<int32, [2]>([1, 1])];
            tensor<int32, []> input_149_groups_0 = const()[name = tensor<string, []>("input_149_groups_0"), val = tensor<int32, []>(1)];
            tensor<fp16, [64, 64, 3, 3]> model_16_conv_weight_to_fp16 = const()[name = tensor<string, []>("model_16_conv_weight_to_fp16"), val = tensor<fp16, [64, 64, 3, 3]>(BLOBFILE(path = tensor<string, []>("@model_path/weights/weight.bin"), offset = tensor<uint64, []>(2914752)))];
            tensor<fp16, [64]> model_16_conv_bias_to_fp16 = const()[name = tensor<string, []>("model_16_conv_bias_to_fp16"), val = tensor<fp16, [64]>(BLOBFILE(path = tensor<string, []>("@model_path/weights/weight.bin"), offset = tensor<uint64, []>(2988544)))];
            tensor<fp16, [1, 64, 20, 20]> input_149_cast_fp16 = conv(bias = model_16_conv_bias_to_fp16, dilations = input_149_dilations_0, groups = input_149_groups_0, pad = input_149_pad_0, pad_type = input_149_pad_type_0, strides = input_149_strides_0, weight = model_16_conv_weight_to_fp16, x = input_147_cast_fp16)[name = tensor<string, []>("input_149_cast_fp16")];
            tensor<fp16, [1, 64, 20, 20]> var_543_cast_fp16 = silu(x = input_149_cast_fp16)[name = tensor<string, []>("op_543_cast_fp16")];
            tensor<int32, []> var_544 = const()[name = tensor<string, []>("op_544"), val = tensor<int32, []>(1)];
            tensor<bool, []> input_151_interleave_0 = const()[name = tensor<string, []>("input_151_interleave_0"), val = tensor<bool, []>(false)];
            tensor<fp16, [1, 192, 20, 20]> input_151_cast_fp16 = concat(axis = var_544, interleave = input_151_interleave_0, values = (var_543_cast_fp16, input_129_cast_fp16))[name = tensor<string, []>("input_151_cast_fp16")];
            tensor<int32, []> var_551 = const()[name = tensor<string, []>("op_551"), val = tensor<int32, []>(1)];
            tensor<string, []> input_153_pad_type_0 = const()[name = tensor<string, []>("input_153_pad_type_0"), val = tensor<string, []>("valid")];
            tensor<int32, [2]> input_153_strides_0 = const()[name = tensor<string, []>("input_153_strides_0"), val = tensor<int32, [2]>([1, 1])];
            tensor<int32, [4]> input_153_pad_0 = const()[name = tensor<string, []>("input_153_pad_0"), val = tensor<int32, [4]>([0, 0, 0, 0])];
            tensor<int32, [2]> input_153_dilations_0 = const()[name = tensor<string, []>("input_153_dilations_0"), val = tensor<int32, [2]>([1, 1])];
            tensor<int32, []> input_153_groups_0 = const()[name = tensor<string, []>("input_153_groups_0"), val = tensor<int32, []>(1)];
            tensor<fp16, [128, 192, 1, 1]> model_18_cv1_conv_weight_to_fp16 = const()[name = tensor<string, []>("model_18_cv1_conv_weight_to_fp16"), val = tensor<fp16, [128, 192, 1, 1]>(BLOBFILE(path = tensor<string, []>("@model_path/weights/weight.bin"), offset = tensor<uint64, []>(2988736)))];
            tensor<fp16, [128]> model_18_cv1_conv_bias_to_fp16 = const()[name = tensor<string, []>("model_18_cv1_conv_bias_to_fp16"), val = tensor<fp16, [128]>(BLOBFILE(path = tensor<string, []>("@model_path/weights/weight.bin"), offset = tensor<uint64, []>(3037952)))];
            tensor<fp16, [1, 128, 20, 20]> input_153_cast_fp16 = conv(bias = model_18_cv1_conv_bias_to_fp16, dilations = input_153_dilations_0, groups = input_153_groups_0, pad = input_153_pad_0, pad_type = input_153_pad_type_0, strides = input_153_strides_0, weight = model_18_cv1_conv_weight_to_fp16, x = input_151_cast_fp16)[name = tensor<string, []>("input_153_cast_fp16")];
            tensor<fp16, [1, 128, 20, 20]> var_564_cast_fp16 = silu(x = input_153_cast_fp16)[name = tensor<string, []>("op_564_cast_fp16")];
            tensor<int32, [2]> var_565 = const()[name = tensor<string, []>("op_565"), val = tensor<int32, [2]>([64, 64])];
            tensor<int32, []> var_566_axis_0 = const()[name = tensor<string, []>("op_566_axis_0"), val = tensor<int32, []>(1)];
            tensor<fp16, [1, 64, 20, 20]> var_566_cast_fp16_0, tensor<fp16, [1, 64, 20, 20]> var_566_cast_fp16_1 = split(axis = var_566_axis_0, split_sizes = var_565, x = var_564_cast_fp16)[name = tensor<string, []>("op_566_cast_fp16")];
            tensor<string, []> input_157_pad_type_0 = const()[name = tensor<string, []>("input_157_pad_type_0"), val = tensor<string, []>("custom")];
            tensor<int32, [4]> input_157_pad_0 = const()[name = tensor<string, []>("input_157_pad_0"), val = tensor<int32, [4]>([1, 1, 1, 1])];
            tensor<int32, [2]> input_157_strides_0 = const()[name = tensor<string, []>("input_157_strides_0"), val = tensor<int32, [2]>([1, 1])];
            tensor<int32, [2]> input_157_dilations_0 = const()[name = tensor<string, []>("input_157_dilations_0"), val = tensor<int32, [2]>([1, 1])];
            tensor<int32, []> input_157_groups_0 = const()[name = tensor<string, []>("input_157_groups_0"), val = tensor<int32, []>(1)];
            tensor<fp16, [64, 64, 3, 3]> model_18_m_0_cv1_conv_weight_to_fp16 = const()[name = tensor<string, []>("model_18_m_0_cv1_conv_weight_to_fp16"), val = tensor<fp16, [64, 64, 3, 3]>(BLOBFILE(path = tensor<string, []>("@model_path/weights/weight.bin"), offset = tensor<uint64, []>(3038272)))];
            tensor<fp16, [64]> model_18_m_0_cv1_conv_bias_to_fp16 = const()[name = tensor<string, []>("model_18_m_0_cv1_conv_bias_to_fp16"), val = tensor<fp16, [64]>(BLOBFILE(path = tensor<string, []>("@model_path/weights/weight.bin"), offset = tensor<uint64, []>(3112064)))];
            tensor<fp16, [1, 64, 20, 20]> input_157_cast_fp16 = conv(bias = model_18_m_0_cv1_conv_bias_to_fp16, dilations = input_157_dilations_0, groups = input_157_groups_0, pad = input_157_pad_0, pad_type = input_157_pad_type_0, strides = input_157_strides_0, weight = model_18_m_0_cv1_conv_weight_to_fp16, x = var_566_cast_fp16_1)[name = tensor<string, []>("input_157_cast_fp16")];
            tensor<fp16, [1, 64, 20, 20]> input_159_cast_fp16 = silu(x = input_157_cast_fp16)[name = tensor<string, []>("input_159_cast_fp16")];
            tensor<string, []> input_161_pad_type_0 = const()[name = tensor<string, []>("input_161_pad_type_0"), val = tensor<string, []>("custom")];
            tensor<int32, [4]> input_161_pad_0 = const()[name = tensor<string, []>("input_161_pad_0"), val = tensor<int32, [4]>([1, 1, 1, 1])];
            tensor<int32, [2]> input_161_strides_0 = const()[name = tensor<string, []>("input_161_strides_0"), val = tensor<int32, [2]>([1, 1])];
            tensor<int32, [2]> input_161_dilations_0 = const()[name = tensor<string, []>("input_161_dilations_0"), val = tensor<int32, [2]>([1, 1])];
            tensor<int32, []> input_161_groups_0 = const()[name = tensor<string, []>("input_161_groups_0"), val = tensor<int32, []>(1)];
            tensor<fp16, [64, 64, 3, 3]> model_18_m_0_cv2_conv_weight_to_fp16 = const()[name = tensor<string, []>("model_18_m_0_cv2_conv_weight_to_fp16"), val = tensor<fp16, [64, 64, 3, 3]>(BLOBFILE(path = tensor<string, []>("@model_path/weights/weight.bin"), offset = tensor<uint64, []>(3112256)))];
            tensor<fp16, [64]> model_18_m_0_cv2_conv_bias_to_fp16 = const()[name = tensor<string, []>("model_18_m_0_cv2_conv_bias_to_fp16"), val = tensor<fp16, [64]>(BLOBFILE(path = tensor<string, []>("@model_path/weights/weight.bin"), offset = tensor<uint64, []>(3186048)))];
            tensor<fp16, [1, 64, 20, 20]> input_161_cast_fp16 = conv(bias = model_18_m_0_cv2_conv_bias_to_fp16, dilations = input_161_dilations_0, groups = input_161_groups_0, pad = input_161_pad_0, pad_type = input_161_pad_type_0, strides = input_161_strides_0, weight = model_18_m_0_cv2_conv_weight_to_fp16, x = input_159_cast_fp16)[name = tensor<string, []>("input_161_cast_fp16")];
            tensor<fp16, [1, 64, 20, 20]> var_588_cast_fp16 = silu(x = input_161_cast_fp16)[name = tensor<string, []>("op_588_cast_fp16")];
            tensor<bool, []> input_163_interleave_0 = const()[name = tensor<string, []>("input_163_interleave_0"), val = tensor<bool, []>(false)];
            tensor<fp16, [1, 192, 20, 20]> input_163_cast_fp16 = concat(axis = var_551, interleave = input_163_interleave_0, values = (var_566_cast_fp16_0, var_566_cast_fp16_1, var_588_cast_fp16))[name = tensor<string, []>("input_163_cast_fp16")];
            tensor<string, []> input_165_pad_type_0 = const()[name = tensor<string, []>("input_165_pad_type_0"), val = tensor<string, []>("valid")];
            tensor<int32, [2]> input_165_strides_0 = const()[name = tensor<string, []>("input_165_strides_0"), val = tensor<int32, [2]>([1, 1])];
            tensor<int32, [4]> input_165_pad_0 = const()[name = tensor<string, []>("input_165_pad_0"), val = tensor<int32, [4]>([0, 0, 0, 0])];
            tensor<int32, [2]> input_165_dilations_0 = const()[name = tensor<string, []>("input_165_dilations_0"), val = tensor<int32, [2]>([1, 1])];
            tensor<int32, []> input_165_groups_0 = const()[name = tensor<string, []>("input_165_groups_0"), val = tensor<int32, []>(1)];
            tensor<fp16, [128, 192, 1, 1]> model_18_cv2_conv_weight_to_fp16 = const()[name = tensor<string, []>("model_18_cv2_conv_weight_to_fp16"), val = tensor<fp16, [128, 192, 1, 1]>(BLOBFILE(path = tensor<string, []>("@model_path/weights/weight.bin"), offset = tensor<uint64, []>(3186240)))];
            tensor<fp16, [128]> model_18_cv2_conv_bias_to_fp16 = const()[name = tensor<string, []>("model_18_cv2_conv_bias_to_fp16"), val = tensor<fp16, [128]>(BLOBFILE(path = tensor<string, []>("@model_path/weights/weight.bin"), offset = tensor<uint64, []>(3235456)))];
            tensor<fp16, [1, 128, 20, 20]> input_165_cast_fp16 = conv(bias = model_18_cv2_conv_bias_to_fp16, dilations = input_165_dilations_0, groups = input_165_groups_0, pad = input_165_pad_0, pad_type = input_165_pad_type_0, strides = input_165_strides_0, weight = model_18_cv2_conv_weight_to_fp16, x = input_163_cast_fp16)[name = tensor<string, []>("input_165_cast_fp16")];
            tensor<fp16, [1, 128, 20, 20]> input_167_cast_fp16 = silu(x = input_165_cast_fp16)[name = tensor<string, []>("input_167_cast_fp16")];
            tensor<string, []> input_169_pad_type_0 = const()[name = tensor<string, []>("input_169_pad_type_0"), val = tensor<string, []>("custom")];
            tensor<int32, [4]> input_169_pad_0 = const()[name = tensor<string, []>("input_169_pad_0"), val = tensor<int32, [4]>([1, 1, 1, 1])];
            tensor<int32, [2]> input_169_strides_0 = const()[name = tensor<string, []>("input_169_strides_0"), val = tensor<int32, [2]>([2, 2])];
            tensor<int32, [2]> input_169_dilations_0 = const()[name = tensor<string, []>("input_169_dilations_0"), val = tensor<int32, [2]>([1, 1])];
            tensor<int32, []> input_169_groups_0 = const()[name = tensor<string, []>("input_169_groups_0"), val = tensor<int32, []>(1)];
            tensor<fp16, [128, 128, 3, 3]> model_19_conv_weight_to_fp16 = const()[name = tensor<string, []>("model_19_conv_weight_to_fp16"), val = tensor<fp16, [128, 128, 3, 3]>(BLOBFILE(path = tensor<string, []>("@model_path/weights/weight.bin"), offset = tensor<uint64, []>(3235776)))];
            tensor<fp16, [128]> model_19_conv_bias_to_fp16 = const()[name = tensor<string, []>("model_19_conv_bias_to_fp16"), val = tensor<fp16, [128]>(BLOBFILE(path = tensor<string, []>("@model_path/weights/weight.bin"), offset = tensor<uint64, []>(3530752)))];
            tensor<fp16, [1, 128, 10, 10]> input_169_cast_fp16 = conv(bias = model_19_conv_bias_to_fp16, dilations = input_169_dilations_0, groups = input_169_groups_0, pad = input_169_pad_0, pad_type = input_169_pad_type_0, strides = input_169_strides_0, weight = model_19_conv_weight_to_fp16, x = input_167_cast_fp16)[name = tensor<string, []>("input_169_cast_fp16")];
            tensor<fp16, [1, 128, 10, 10]> var_613_cast_fp16 = silu(x = input_169_cast_fp16)[name = tensor<string, []>("op_613_cast_fp16")];
            tensor<int32, []> var_614 = const()[name = tensor<string, []>("op_614"), val = tensor<int32, []>(1)];
            tensor<bool, []> input_171_interleave_0 = const()[name = tensor<string, []>("input_171_interleave_0"), val = tensor<bool, []>(false)];
            tensor<fp16, [1, 384, 10, 10]> input_171_cast_fp16 = concat(axis = var_614, interleave = input_171_interleave_0, values = (var_613_cast_fp16, input_111_cast_fp16))[name = tensor<string, []>("input_171_cast_fp16")];
            tensor<int32, []> var_621 = const()[name = tensor<string, []>("op_621"), val = tensor<int32, []>(1)];
            tensor<string, []> input_173_pad_type_0 = const()[name = tensor<string, []>("input_173_pad_type_0"), val = tensor<string, []>("valid")];
            tensor<int32, [2]> input_173_strides_0 = const()[name = tensor<string, []>("input_173_strides_0"), val = tensor<int32, [2]>([1, 1])];
            tensor<int32, [4]> input_173_pad_0 = const()[name = tensor<string, []>("input_173_pad_0"), val = tensor<int32, [4]>([0, 0, 0, 0])];
            tensor<int32, [2]> input_173_dilations_0 = const()[name = tensor<string, []>("input_173_dilations_0"), val = tensor<int32, [2]>([1, 1])];
            tensor<int32, []> input_173_groups_0 = const()[name = tensor<string, []>("input_173_groups_0"), val = tensor<int32, []>(1)];
            tensor<fp16, [256, 384, 1, 1]> model_21_cv1_conv_weight_to_fp16 = const()[name = tensor<string, []>("model_21_cv1_conv_weight_to_fp16"), val = tensor<fp16, [256, 384, 1, 1]>(BLOBFILE(path = tensor<string, []>("@model_path/weights/weight.bin"), offset = tensor<uint64, []>(3531072)))];
            tensor<fp16, [256]> model_21_cv1_conv_bias_to_fp16 = const()[name = tensor<string, []>("model_21_cv1_conv_bias_to_fp16"), val = tensor<fp16, [256]>(BLOBFILE(path = tensor<string, []>("@model_path/weights/weight.bin"), offset = tensor<uint64, []>(3727744)))];
            tensor<fp16, [1, 256, 10, 10]> input_173_cast_fp16 = conv(bias = model_21_cv1_conv_bias_to_fp16, dilations = input_173_dilations_0, groups = input_173_groups_0, pad = input_173_pad_0, pad_type = input_173_pad_type_0, strides = input_173_strides_0, weight = model_21_cv1_conv_weight_to_fp16, x = input_171_cast_fp16)[name = tensor<string, []>("input_173_cast_fp16")];
            tensor<fp16, [1, 256, 10, 10]> var_634_cast_fp16 = silu(x = input_173_cast_fp16)[name = tensor<string, []>("op_634_cast_fp16")];
            tensor<int32, [2]> var_635 = const()[name = tensor<string, []>("op_635"), val = tensor<int32, [2]>([128, 128])];
            tensor<int32, []> var_636_axis_0 = const()[name = tensor<string, []>("op_636_axis_0"), val = tensor<int32, []>(1)];
            tensor<fp16, [1, 128, 10, 10]> var_636_cast_fp16_0, tensor<fp16, [1, 128, 10, 10]> var_636_cast_fp16_1 = split(axis = var_636_axis_0, split_sizes = var_635, x = var_634_cast_fp16)[name = tensor<string, []>("op_636_cast_fp16")];
            tensor<string, []> input_177_pad_type_0 = const()[name = tensor<string, []>("input_177_pad_type_0"), val = tensor<string, []>("custom")];
            tensor<int32, [4]> input_177_pad_0 = const()[name = tensor<string, []>("input_177_pad_0"), val = tensor<int32, [4]>([1, 1, 1, 1])];
            tensor<int32, [2]> input_177_strides_0 = const()[name = tensor<string, []>("input_177_strides_0"), val = tensor<int32, [2]>([1, 1])];
            tensor<int32, [2]> input_177_dilations_0 = const()[name = tensor<string, []>("input_177_dilations_0"), val = tensor<int32, [2]>([1, 1])];
            tensor<int32, []> input_177_groups_0 = const()[name = tensor<string, []>("input_177_groups_0"), val = tensor<int32, []>(1)];
            tensor<fp16, [128, 128, 3, 3]> model_21_m_0_cv1_conv_weight_to_fp16 = const()[name = tensor<string, []>("model_21_m_0_cv1_conv_weight_to_fp16"), val = tensor<fp16, [128, 128, 3, 3]>(BLOBFILE(path = tensor<string, []>("@model_path/weights/weight.bin"), offset = tensor<uint64, []>(3728320)))];
            tensor<fp16, [128]> model_21_m_0_cv1_conv_bias_to_fp16 = const()[name = tensor<string, []>("model_21_m_0_cv1_conv_bias_to_fp16"), val = tensor<fp16, [128]>(BLOBFILE(path = tensor<string, []>("@model_path/weights/weight.bin"), offset = tensor<uint64, []>(4023296)))];
            tensor<fp16, [1, 128, 10, 10]> input_177_cast_fp16 = conv(bias = model_21_m_0_cv1_conv_bias_to_fp16, dilations = input_177_dilations_0, groups = input_177_groups_0, pad = input_177_pad_0, pad_type = input_177_pad_type_0, strides = input_177_strides_0, weight = model_21_m_0_cv1_conv_weight_to_fp16, x = var_636_cast_fp16_1)[name = tensor<string, []>("input_177_cast_fp16")];
            tensor<fp16, [1, 128, 10, 10]> input_179_cast_fp16 = silu(x = input_177_cast_fp16)[name = tensor<string, []>("input_179_cast_fp16")];
            tensor<string, []> input_181_pad_type_0 = const()[name = tensor<string, []>("input_181_pad_type_0"), val = tensor<string, []>("custom")];
            tensor<int32, [4]> input_181_pad_0 = const()[name = tensor<string, []>("input_181_pad_0"), val = tensor<int32, [4]>([1, 1, 1, 1])];
            tensor<int32, [2]> input_181_strides_0 = const()[name = tensor<string, []>("input_181_strides_0"), val = tensor<int32, [2]>([1, 1])];
            tensor<int32, [2]> input_181_dilations_0 = const()[name = tensor<string, []>("input_181_dilations_0"), val = tensor<int32, [2]>([1, 1])];
            tensor<int32, []> input_181_groups_0 = const()[name = tensor<string, []>("input_181_groups_0"), val = tensor<int32, []>(1)];
            tensor<fp16, [128, 128, 3, 3]> model_21_m_0_cv2_conv_weight_to_fp16 = const()[name = tensor<string, []>("model_21_m_0_cv2_conv_weight_to_fp16"), val = tensor<fp16, [128, 128, 3, 3]>(BLOBFILE(path = tensor<string, []>("@model_path/weights/weight.bin"), offset = tensor<uint64, []>(4023616)))];
            tensor<fp16, [128]> model_21_m_0_cv2_conv_bias_to_fp16 = const()[name = tensor<string, []>("model_21_m_0_cv2_conv_bias_to_fp16"), val = tensor<fp16, [128]>(BLOBFILE(path = tensor<string, []>("@model_path/weights/weight.bin"), offset = tensor<uint64, []>(4318592)))];
            tensor<fp16, [1, 128, 10, 10]> input_181_cast_fp16 = conv(bias = model_21_m_0_cv2_conv_bias_to_fp16, dilations = input_181_dilations_0, groups = input_181_groups_0, pad = input_181_pad_0, pad_type = input_181_pad_type_0, strides = input_181_strides_0, weight = model_21_m_0_cv2_conv_weight_to_fp16, x = input_179_cast_fp16)[name = tensor<string, []>("input_181_cast_fp16")];
            tensor<fp16, [1, 128, 10, 10]> var_658_cast_fp16 = silu(x = input_181_cast_fp16)[name = tensor<string, []>("op_658_cast_fp16")];
            tensor<bool, []> input_183_interleave_0 = const()[name = tensor<string, []>("input_183_interleave_0"), val = tensor<bool, []>(false)];
            tensor<fp16, [1, 384, 10, 10]> input_183_cast_fp16 = concat(axis = var_621, interleave = input_183_interleave_0, values = (var_636_cast_fp16_0, var_636_cast_fp16_1, var_658_cast_fp16))[name = tensor<string, []>("input_183_cast_fp16")];
            tensor<string, []> input_185_pad_type_0 = const()[name = tensor<string, []>("input_185_pad_type_0"), val = tensor<string, []>("valid")];
            tensor<int32, [2]> input_185_strides_0 = const()[name = tensor<string, []>("input_185_strides_0"), val = tensor<int32, [2]>([1, 1])];
            tensor<int32, [4]> input_185_pad_0 = const()[name = tensor<string, []>("input_185_pad_0"), val = tensor<int32, [4]>([0, 0, 0, 0])];
            tensor<int32, [2]> input_185_dilations_0 = const()[name = tensor<string, []>("input_185_dilations_0"), val = tensor<int32, [2]>([1, 1])];
            tensor<int32, []> input_185_groups_0 = const()[name = tensor<string, []>("input_185_groups_0"), val = tensor<int32, []>(1)];
            tensor<fp16, [256, 384, 1, 1]> model_21_cv2_conv_weight_to_fp16 = const()[name = tensor<string, []>("model_21_cv2_conv_weight_to_fp16"), val = tensor<fp16, [256, 384, 1, 1]>(BLOBFILE(path = tensor<string, []>("@model_path/weights/weight.bin"), offset = tensor<uint64, []>(4318912)))];
            tensor<fp16, [256]> model_21_cv2_conv_bias_to_fp16 = const()[name = tensor<string, []>("model_21_cv2_conv_bias_to_fp16"), val = tensor<fp16, [256]>(BLOBFILE(path = tensor<string, []>("@model_path/weights/weight.bin"), offset = tensor<uint64, []>(4515584)))];
            tensor<fp16, [1, 256, 10, 10]> input_185_cast_fp16 = conv(bias = model_21_cv2_conv_bias_to_fp16, dilations = input_185_dilations_0, groups = input_185_groups_0, pad = input_185_pad_0, pad_type = input_185_pad_type_0, strides = input_185_strides_0, weight = model_21_cv2_conv_weight_to_fp16, x = input_183_cast_fp16)[name = tensor<string, []>("input_185_cast_fp16")];
            tensor<fp16, [1, 256, 10, 10]> input_203_cast_fp16 = silu(x = input_185_cast_fp16)[name = tensor<string, []>("input_203_cast_fp16")];
            tensor<int32, []> var_677 = const()[name = tensor<string, []>("op_677"), val = tensor<int32, []>(2)];
            tensor<int32, []> var_679 = const()[name = tensor<string, []>("op_679"), val = tensor<int32, []>(-1)];
            tensor<int32, []> var_681 = const()[name = tensor<string, []>("op_681"), val = tensor<int32, []>(1)];
            tensor<string, []> input_187_pad_type_0 = const()[name = tensor<string, []>("input_187_pad_type_0"), val = tensor<string, []>("custom")];
            tensor<int32, [4]> input_187_pad_0 = const()[name = tensor<string, []>("input_187_pad_0"), val = tensor<int32, [4]>([1, 1, 1, 1])];
            tensor<int32, [2]> input_187_strides_0 = const()[name = tensor<string, []>("input_187_strides_0"), val = tensor<int32, [2]>([1, 1])];
            tensor<int32, [2]> input_187_dilations_0 = const()[name = tensor<string, []>("input_187_dilations_0"), val = tensor<int32, [2]>([1, 1])];
            tensor<int32, []> input_187_groups_0 = const()[name = tensor<string, []>("input_187_groups_0"), val = tensor<int32, []>(1)];
            tensor<fp16, [64, 64, 3, 3]> model_22_cv2_0_0_conv_weight_to_fp16 = const()[name = tensor<string, []>("model_22_cv2_0_0_conv_weight_to_fp16"), val = tensor<fp16, [64, 64, 3, 3]>(BLOBFILE(path = tensor<string, []>("@model_path/weights/weight.bin"), offset = tensor<uint64, []>(4516160)))];
            tensor<fp16, [64]> model_22_cv2_0_0_conv_bias_to_fp16 = const()[name = tensor<string, []>("model_22_cv2_0_0_conv_bias_to_fp16"), val = tensor<fp16, [64]>(BLOBFILE(path = tensor<string, []>("@model_path/weights/weight.bin"), offset = tensor<uint64, []>(4589952)))];
            tensor<fp16, [1, 64, 40, 40]> input_187_cast_fp16 = conv(bias = model_22_cv2_0_0_conv_bias_to_fp16, dilations = input_187_dilations_0, groups = input_187_groups_0, pad = input_187_pad_0, pad_type = input_187_pad_type_0, strides = input_187_strides_0, weight = model_22_cv2_0_0_conv_weight_to_fp16, x = input_147_cast_fp16)[name = tensor<string, []>("input_187_cast_fp16")];
            tensor<fp16, [1, 64, 40, 40]> input_189_cast_fp16 = silu(x = input_187_cast_fp16)[name = tensor<string, []>("input_189_cast_fp16")];
            tensor<string, []> input_191_pad_type_0 = const()[name = tensor<string, []>("input_191_pad_type_0"), val = tensor<string, []>("custom")];
            tensor<int32, [4]> input_191_pad_0 = const()[name = tensor<string, []>("input_191_pad_0"), val = tensor<int32, [4]>([1, 1, 1, 1])];
            tensor<int32, [2]> input_191_strides_0 = const()[name = tensor<string, []>("input_191_strides_0"), val = tensor<int32, [2]>([1, 1])];
            tensor<int32, [2]> input_191_dilations_0 = const()[name = tensor<string, []>("input_191_dilations_0"), val = tensor<int32, [2]>([1, 1])];
            tensor<int32, []> input_191_groups_0 = const()[name = tensor<string, []>("input_191_groups_0"), val = tensor<int32, []>(1)];
            tensor<fp16, [64, 64, 3, 3]> model_22_cv2_0_1_conv_weight_to_fp16 = const()[name = tensor<string, []>("model_22_cv2_0_1_conv_weight_to_fp16"), val = tensor<fp16, [64, 64, 3, 3]>(BLOBFILE(path = tensor<string, []>("@model_path/weights/weight.bin"), offset = tensor<uint64, []>(4590144)))];
            tensor<fp16, [64]> model_22_cv2_0_1_conv_bias_to_fp16 = const()[name = tensor<string, []>("model_22_cv2_0_1_conv_bias_to_fp16"), val = tensor<fp16, [64]>(BLOBFILE(path = tensor<string, []>("@model_path/weights/weight.bin"), offset = tensor<uint64, []>(4663936)))];
            tensor<fp16, [1, 64, 40, 40]> input_191_cast_fp16 = conv(bias = model_22_cv2_0_1_conv_bias_to_fp16, dilations = input_191_dilations_0, groups = input_191_groups_0, pad = input_191_pad_0, pad_type = input_191_pad_type_0, strides = input_191_strides_0, weight = model_22_cv2_0_1_conv_weight_to_fp16, x = input_189_cast_fp16)[name = tensor<string, []>("input_191_cast_fp16")];
            tensor<fp16, [1, 64, 40, 40]> input_193_cast_fp16 = silu(x = input_191_cast_fp16)[name = tensor<string, []>("input_193_cast_fp16")];
            tensor<string, []> var_732_pad_type_0 = const()[name = tensor<string, []>("op_732_pad_type_0"), val = tensor<string, []>("valid")];
            tensor<int32, [2]> var_732_strides_0 = const()[name = tensor<string, []>("op_732_strides_0"), val = tensor<int32, [2]>([1, 1])];
            tensor<int32, [4]> var_732_pad_0 = const()[name = tensor<string, []>("op_732_pad_0"), val = tensor<int32, [4]>([0, 0, 0, 0])];
            tensor<int32, [2]> var_732_dilations_0 = const()[name = tensor<string, []>("op_732_dilations_0"), val = tensor<int32, [2]>([1, 1])];
            tensor<int32, []> var_732_groups_0 = const()[name = tensor<string, []>("op_732_groups_0"), val = tensor<int32, []>(1)];
            tensor<fp16, [64, 64, 1, 1]> model_22_cv2_0_2_weight_to_fp16 = const()[name = tensor<string, []>("model_22_cv2_0_2_weight_to_fp16"), val = tensor<fp16, [64, 64, 1, 1]>(BLOBFILE(path = tensor<string, []>("@model_path/weights/weight.bin"), offset = tensor<uint64, []>(4664128)))];
            tensor<fp16, [64]> model_22_cv2_0_2_bias_to_fp16 = const()[name = tensor<string, []>("model_22_cv2_0_2_bias_to_fp16"), val = tensor<fp16, [64]>(BLOBFILE(path = tensor<string, []>("@model_path/weights/weight.bin"), offset = tensor<uint64, []>(4672384)))];
            tensor<fp16, [1, 64, 40, 40]> var_732_cast_fp16 = conv(bias = model_22_cv2_0_2_bias_to_fp16, dilations = var_732_dilations_0, groups = var_732_groups_0, pad = var_732_pad_0, pad_type = var_732_pad_type_0, strides = var_732_strides_0, weight = model_22_cv2_0_2_weight_to_fp16, x = input_193_cast_fp16)[name = tensor<string, []>("op_732_cast_fp16")];
            tensor<int32, [3]> var_733 = const()[name = tensor<string, []>("op_733"), val = tensor<int32, [3]>([1, 64, -1])];
            tensor<fp16, [1, 64, 1600]> var_734_cast_fp16 = reshape(shape = var_733, x = var_732_cast_fp16)[name = tensor<string, []>("op_734_cast_fp16")];
            tensor<string, []> input_195_pad_type_0 = const()[name = tensor<string, []>("input_195_pad_type_0"), val = tensor<string, []>("custom")];
            tensor<int32, [4]> input_195_pad_0 = const()[name = tensor<string, []>("input_195_pad_0"), val = tensor<int32, [4]>([1, 1, 1, 1])];
            tensor<int32, [2]> input_195_strides_0 = const()[name = tensor<string, []>("input_195_strides_0"), val = tensor<int32, [2]>([1, 1])];
            tensor<int32, [2]> input_195_dilations_0 = const()[name = tensor<string, []>("input_195_dilations_0"), val = tensor<int32, [2]>([1, 1])];
            tensor<int32, []> input_195_groups_0 = const()[name = tensor<string, []>("input_195_groups_0"), val = tensor<int32, []>(1)];
            tensor<fp16, [64, 128, 3, 3]> model_22_cv2_1_0_conv_weight_to_fp16 = const()[name = tensor<string, []>("model_22_cv2_1_0_conv_weight_to_fp16"), val = tensor<fp16, [64, 128, 3, 3]>(BLOBFILE(path = tensor<string, []>("@model_path/weights/weight.bin"), offset = tensor<uint64, []>(4672576)))];
            tensor<fp16, [64]> model_22_cv2_1_0_conv_bias_to_fp16 = const()[name = tensor<string, []>("model_22_cv2_1_0_conv_bias_to_fp16"), val = tensor<fp16, [64]>(BLOBFILE(path = tensor<string, []>("@model_path/weights/weight.bin"), offset = tensor<uint64, []>(4820096)))];
            tensor<fp16, [1, 64, 20, 20]> input_195_cast_fp16 = conv(bias = model_22_cv2_1_0_conv_bias_to_fp16, dilations = input_195_dilations_0, groups = input_195_groups_0, pad = input_195_pad_0, pad_type = input_195_pad_type_0, strides = input_195_strides_0, weight = model_22_cv2_1_0_conv_weight_to_fp16, x = input_167_cast_fp16)[name = tensor<string, []>("input_195_cast_fp16")];
            tensor<fp16, [1, 64, 20, 20]> input_197_cast_fp16 = silu(x = input_195_cast_fp16)[name = tensor<string, []>("input_197_cast_fp16")];
            tensor<string, []> input_199_pad_type_0 = const()[name = tensor<string, []>("input_199_pad_type_0"), val = tensor<string, []>("custom")];
            tensor<int32, [4]> input_199_pad_0 = const()[name = tensor<string, []>("input_199_pad_0"), val = tensor<int32, [4]>([1, 1, 1, 1])];
            tensor<int32, [2]> input_199_strides_0 = const()[name = tensor<string, []>("input_199_strides_0"), val = tensor<int32, [2]>([1, 1])];
            tensor<int32, [2]> input_199_dilations_0 = const()[name = tensor<string, []>("input_199_dilations_0"), val = tensor<int32, [2]>([1, 1])];
            tensor<int32, []> input_199_groups_0 = const()[name = tensor<string, []>("input_199_groups_0"), val = tensor<int32, []>(1)];
            tensor<fp16, [64, 64, 3, 3]> model_22_cv2_1_1_conv_weight_to_fp16 = const()[name = tensor<string, []>("model_22_cv2_1_1_conv_weight_to_fp16"), val = tensor<fp16, [64, 64, 3, 3]>(BLOBFILE(path = tensor<string, []>("@model_path/weights/weight.bin"), offset = tensor<uint64, []>(4820288)))];
            tensor<fp16, [64]> model_22_cv2_1_1_conv_bias_to_fp16 = const()[name = tensor<string, []>("model_22_cv2_1_1_conv_bias_to_fp16"), val = tensor<fp16, [64]>(BLOBFILE(path = tensor<string, []>("@model_path/weights/weight.bin"), offset = tensor<uint64, []>(4894080)))];
            tensor<fp16, [1, 64, 20, 20]> input_199_cast_fp16 = conv(bias = model_22_cv2_1_1_conv_bias_to_fp16, dilations = input_199_dilations_0, groups = input_199_groups_0, pad = input_199_pad_0, pad_type = input_199_pad_type_0, strides = input_199_strides_0, weight = model_22_cv2_1_1_conv_weight_to_fp16, x = input_197_cast_fp16)[name = tensor<string, []>("input_199_cast_fp16")];
            tensor<fp16, [1, 64, 20, 20]> input_201_cast_fp16 = silu(x = input_199_cast_fp16)[name = tensor<string, []>("input_201_cast_fp16")];
            tensor<string, []> var_762_pad_type_0 = const()[name = tensor<string, []>("op_762_pad_type_0"), val = tensor<string, []>("valid")];
            tensor<int32, [2]> var_762_strides_0 = const()[name = tensor<string, []>("op_762_strides_0"), val = tensor<int32, [2]>([1, 1])];
            tensor<int32, [4]> var_762_pad_0 = const()[name = tensor<string, []>("op_762_pad_0"), val = tensor<int32, [4]>([0, 0, 0, 0])];
            tensor<int32, [2]> var_762_dilations_0 = const()[name = tensor<string, []>("op_762_dilations_0"), val = tensor<int32, [2]>([1, 1])];
            tensor<int32, []> var_762_groups_0 = const()[name = tensor<string, []>("op_762_groups_0"), val = tensor<int32, []>(1)];
            tensor<fp16, [64, 64, 1, 1]> model_22_cv2_1_2_weight_to_fp16 = const()[name = tensor<string, []>("model_22_cv2_1_2_weight_to_fp16"), val = tensor<fp16, [64, 64, 1, 1]>(BLOBFILE(path = tensor<string, []>("@model_path/weights/weight.bin"), offset = tensor<uint64, []>(4894272)))];
            tensor<fp16, [64]> model_22_cv2_1_2_bias_to_fp16 = const()[name = tensor<string, []>("model_22_cv2_1_2_bias_to_fp16"), val = tensor<fp16, [64]>(BLOBFILE(path = tensor<string, []>("@model_path/weights/weight.bin"), offset = tensor<uint64, []>(4902528)))];
            tensor<fp16, [1, 64, 20, 20]> var_762_cast_fp16 = conv(bias = model_22_cv2_1_2_bias_to_fp16, dilations = var_762_dilations_0, groups = var_762_groups_0, pad = var_762_pad_0, pad_type = var_762_pad_type_0, strides = var_762_strides_0, weight = model_22_cv2_1_2_weight_to_fp16, x = input_201_cast_fp16)[name = tensor<string, []>("op_762_cast_fp16")];
            tensor<int32, [3]> var_763 = const()[name = tensor<string, []>("op_763"), val = tensor<int32, [3]>([1, 64, -1])];
            tensor<fp16, [1, 64, 400]> var_764_cast_fp16 = reshape(shape = var_763, x = var_762_cast_fp16)[name = tensor<string, []>("op_764_cast_fp16")];
            tensor<string, []> input_205_pad_type_0 = const()[name = tensor<string, []>("input_205_pad_type_0"), val = tensor<string, []>("custom")];
            tensor<int32, [4]> input_205_pad_0 = const()[name = tensor<string, []>("input_205_pad_0"), val = tensor<int32, [4]>([1, 1, 1, 1])];
            tensor<int32, [2]> input_205_strides_0 = const()[name = tensor<string, []>("input_205_strides_0"), val = tensor<int32, [2]>([1, 1])];
            tensor<int32, [2]> input_205_dilations_0 = const()[name = tensor<string, []>("input_205_dilations_0"), val = tensor<int32, [2]>([1, 1])];
            tensor<int32, []> input_205_groups_0 = const()[name = tensor<string, []>("input_205_groups_0"), val = tensor<int32, []>(1)];
            tensor<fp16, [64, 256, 3, 3]> model_22_cv2_2_0_conv_weight_to_fp16 = const()[name = tensor<string, []>("model_22_cv2_2_0_conv_weight_to_fp16"), val = tensor<fp16, [64, 256, 3, 3]>(BLOBFILE(path = tensor<string, []>("@model_path/weights/weight.bin"), offset = tensor<uint64, []>(4902720)))];
            tensor<fp16, [64]> model_22_cv2_2_0_conv_bias_to_fp16 = const()[name = tensor<string, []>("model_22_cv2_2_0_conv_bias_to_fp16"), val = tensor<fp16, [64]>(BLOBFILE(path = tensor<string, []>("@model_path/weights/weight.bin"), offset = tensor<uint64, []>(5197696)))];
            tensor<fp16, [1, 64, 10, 10]> input_205_cast_fp16 = conv(bias = model_22_cv2_2_0_conv_bias_to_fp16, dilations = input_205_dilations_0, groups = input_205_groups_0, pad = input_205_pad_0, pad_type = input_205_pad_type_0, strides = input_205_strides_0, weight = model_22_cv2_2_0_conv_weight_to_fp16, x = input_203_cast_fp16)[name = tensor<string, []>("input_205_cast_fp16")];
            tensor<fp16, [1, 64, 10, 10]> input_207_cast_fp16 = silu(x = input_205_cast_fp16)[name = tensor<string, []>("input_207_cast_fp16")];
            tensor<string, []> input_209_pad_type_0 = const()[name = tensor<string, []>("input_209_pad_type_0"), val = tensor<string, []>("custom")];
            tensor<int32, [4]> input_209_pad_0 = const()[name = tensor<string, []>("input_209_pad_0"), val = tensor<int32, [4]>([1, 1, 1, 1])];
            tensor<int32, [2]> input_209_strides_0 = const()[name = tensor<string, []>("input_209_strides_0"), val = tensor<int32, [2]>([1, 1])];
            tensor<int32, [2]> input_209_dilations_0 = const()[name = tensor<string, []>("input_209_dilations_0"), val = tensor<int32, [2]>([1, 1])];
            tensor<int32, []> input_209_groups_0 = const()[name = tensor<string, []>("input_209_groups_0"), val = tensor<int32, []>(1)];
            tensor<fp16, [64, 64, 3, 3]> model_22_cv2_2_1_conv_weight_to_fp16 = const()[name = tensor<string, []>("model_22_cv2_2_1_conv_weight_to_fp16"), val = tensor<fp16, [64, 64, 3, 3]>(BLOBFILE(path = tensor<string, []>("@model_path/weights/weight.bin"), offset = tensor<uint64, []>(5197888)))];
            tensor<fp16, [64]> model_22_cv2_2_1_conv_bias_to_fp16 = const()[name = tensor<string, []>("model_22_cv2_2_1_conv_bias_to_fp16"), val = tensor<fp16, [64]>(BLOBFILE(path = tensor<string, []>("@model_path/weights/weight.bin"), offset = tensor<uint64, []>(5271680)))];
            tensor<fp16, [1, 64, 10, 10]> input_209_cast_fp16 = conv(bias = model_22_cv2_2_1_conv_bias_to_fp16, dilations = input_209_dilations_0, groups = input_209_groups_0, pad = input_209_pad_0, pad_type = input_209_pad_type_0, strides = input_209_strides_0, weight = model_22_cv2_2_1_conv_weight_to_fp16, x = input_207_cast_fp16)[name = tensor<string, []>("input_209_cast_fp16")];
            tensor<fp16, [1, 64, 10, 10]> input_211_cast_fp16 = silu(x = input_209_cast_fp16)[name = tensor<string, []>("input_211_cast_fp16")];
            tensor<string, []> var_792_pad_type_0 = const()[name = tensor<string, []>("op_792_pad_type_0"), val = tensor<string, []>("valid")];
            tensor<int32, [2]> var_792_strides_0 = const()[name = tensor<string, []>("op_792_strides_0"), val = tensor<int32, [2]>([1, 1])];
            tensor<int32, [4]> var_792_pad_0 = const()[name = tensor<string, []>("op_792_pad_0"), val = tensor<int32, [4]>([0, 0, 0, 0])];
            tensor<int32, [2]> var_792_dilations_0 = const()[name = tensor<string, []>("op_792_dilations_0"), val = tensor<int32, [2]>([1, 1])];
            tensor<int32, []> var_792_groups_0 = const()[name = tensor<string, []>("op_792_groups_0"), val = tensor<int32, []>(1)];
            tensor<fp16, [64, 64, 1, 1]> model_22_cv2_2_2_weight_to_fp16 = const()[name = tensor<string, []>("model_22_cv2_2_2_weight_to_fp16"), val = tensor<fp16, [64, 64, 1, 1]>(BLOBFILE(path = tensor<string, []>("@model_path/weights/weight.bin"), offset = tensor<uint64, []>(5271872)))];
            tensor<fp16, [64]> model_22_cv2_2_2_bias_to_fp16 = const()[name = tensor<string, []>("model_22_cv2_2_2_bias_to_fp16"), val = tensor<fp16, [64]>(BLOBFILE(path = tensor<string, []>("@model_path/weights/weight.bin"), offset = tensor<uint64, []>(5280128)))];
            tensor<fp16, [1, 64, 10, 10]> var_792_cast_fp16 = conv(bias = model_22_cv2_2_2_bias_to_fp16, dilations = var_792_dilations_0, groups = var_792_groups_0, pad = var_792_pad_0, pad_type = var_792_pad_type_0, strides = var_792_strides_0, weight = model_22_cv2_2_2_weight_to_fp16, x = input_211_cast_fp16)[name = tensor<string, []>("op_792_cast_fp16")];
            tensor<int32, [3]> var_793 = const()[name = tensor<string, []>("op_793"), val = tensor<int32, [3]>([1, 64, -1])];
            tensor<fp16, [1, 64, 100]> var_794_cast_fp16 = reshape(shape = var_793, x = var_792_cast_fp16)[name = tensor<string, []>("op_794_cast_fp16")];
            tensor<bool, []> x_interleave_0 = const()[name = tensor<string, []>("x_interleave_0"), val = tensor<bool, []>(false)];
            tensor<fp16, [1, 64, 2100]> x_cast_fp16 = concat(axis = var_679, interleave = x_interleave_0, values = (var_734_cast_fp16, var_764_cast_fp16, var_794_cast_fp16))[name = tensor<string, []>("x_cast_fp16")];
            tensor<string, []> input_213_pad_type_0 = const()[name = tensor<string, []>("input_213_pad_type_0"), val = tensor<string, []>("custom")];
            tensor<int32, [4]> input_213_pad_0 = const()[name = tensor<string, []>("input_213_pad_0"), val = tensor<int32, [4]>([1, 1, 1, 1])];
            tensor<int32, [2]> input_213_strides_0 = const()[name = tensor<string, []>("input_213_strides_0"), val = tensor<int32, [2]>([1, 1])];
            tensor<int32, [2]> input_213_dilations_0 = const()[name = tensor<string, []>("input_213_dilations_0"), val = tensor<int32, [2]>([1, 1])];
            tensor<int32, []> input_213_groups_0 = const()[name = tensor<string, []>("input_213_groups_0"), val = tensor<int32, []>(1)];
            tensor<fp16, [64, 64, 3, 3]> model_22_cv3_0_0_conv_weight_to_fp16 = const()[name = tensor<string, []>("model_22_cv3_0_0_conv_weight_to_fp16"), val = tensor<fp16, [64, 64, 3, 3]>(BLOBFILE(path = tensor<string, []>("@model_path/weights/weight.bin"), offset = tensor<uint64, []>(5280320)))];
            tensor<fp16, [64]> model_22_cv3_0_0_conv_bias_to_fp16 = const()[name = tensor<string, []>("model_22_cv3_0_0_conv_bias_to_fp16"), val = tensor<fp16, [64]>(BLOBFILE(path = tensor<string, []>("@model_path/weights/weight.bin"), offset = tensor<uint64, []>(5354112)))];
            tensor<fp16, [1, 64, 40, 40]> input_213_cast_fp16 = conv(bias = model_22_cv3_0_0_conv_bias_to_fp16, dilations = input_213_dilations_0, groups = input_213_groups_0, pad = input_213_pad_0, pad_type = input_213_pad_type_0, strides = input_213_strides_0, weight = model_22_cv3_0_0_conv_weight_to_fp16, x = input_147_cast_fp16)[name = tensor<string, []>("input_213_cast_fp16")];
            tensor<fp16, [1, 64, 40, 40]> input_215_cast_fp16 = silu(x = input_213_cast_fp16)[name = tensor<string, []>("input_215_cast_fp16")];
            tensor<string, []> input_217_pad_type_0 = const()[name = tensor<string, []>("input_217_pad_type_0"), val = tensor<string, []>("custom")];
            tensor<int32, [4]> input_217_pad_0 = const()[name = tensor<string, []>("input_217_pad_0"), val = tensor<int32, [4]>([1, 1, 1, 1])];
            tensor<int32, [2]> input_217_strides_0 = const()[name = tensor<string, []>("input_217_strides_0"), val = tensor<int32, [2]>([1, 1])];
            tensor<int32, [2]> input_217_dilations_0 = const()[name = tensor<string, []>("input_217_dilations_0"), val = tensor<int32, [2]>([1, 1])];
            tensor<int32, []> input_217_groups_0 = const()[name = tensor<string, []>("input_217_groups_0"), val = tensor<int32, []>(1)];
            tensor<fp16, [64, 64, 3, 3]> model_22_cv3_0_1_conv_weight_to_fp16 = const()[name = tensor<string, []>("model_22_cv3_0_1_conv_weight_to_fp16"), val = tensor<fp16, [64, 64, 3, 3]>(BLOBFILE(path = tensor<string, []>("@model_path/weights/weight.bin"), offset = tensor<uint64, []>(5354304)))];
            tensor<fp16, [64]> model_22_cv3_0_1_conv_bias_to_fp16 = const()[name = tensor<string, []>("model_22_cv3_0_1_conv_bias_to_fp16"), val = tensor<fp16, [64]>(BLOBFILE(path = tensor<string, []>("@model_path/weights/weight.bin"), offset = tensor<uint64, []>(5428096)))];
            tensor<fp16, [1, 64, 40, 40]> input_217_cast_fp16 = conv(bias = model_22_cv3_0_1_conv_bias_to_fp16, dilations = input_217_dilations_0, groups = input_217_groups_0, pad = input_217_pad_0, pad_type = input_217_pad_type_0, strides = input_217_strides_0, weight = model_22_cv3_0_1_conv_weight_to_fp16, x = input_215_cast_fp16)[name = tensor<string, []>("input_217_cast_fp16")];
            tensor<fp16, [1, 64, 40, 40]> input_219_cast_fp16 = silu(x = input_217_cast_fp16)[name = tensor<string, []>("input_219_cast_fp16")];
            tensor<string, []> var_824_pad_type_0 = const()[name = tensor<string, []>("op_824_pad_type_0"), val = tensor<string, []>("valid")];
            tensor<int32, [2]> var_824_strides_0 = const()[name = tensor<string, []>("op_824_strides_0"), val = tensor<int32, [2]>([1, 1])];
            tensor<int32, [4]> var_824_pad_0 = const()[name = tensor<string, []>("op_824_pad_0"), val = tensor<int32, [4]>([0, 0, 0, 0])];
            tensor<int32, [2]> var_824_dilations_0 = const()[name = tensor<string, []>("op_824_dilations_0"), val = tensor<int32, [2]>([1, 1])];
            tensor<int32, []> var_824_groups_0 = const()[name = tensor<string, []>("op_824_groups_0"), val = tensor<int32, []>(1)];
            tensor<fp16, [1, 64, 1, 1]> model_22_cv3_0_2_weight_to_fp16 = const()[name = tensor<string, []>("model_22_cv3_0_2_weight_to_fp16"), val = tensor<fp16, [1, 64, 1, 1]>(BLOBFILE(path = tensor<string, []>("@model_path/weights/weight.bin"), offset = tensor<uint64, []>(5428288)))];
            tensor<fp16, [1]> model_22_cv3_0_2_bias_to_fp16 = const()[name = tensor<string, []>("model_22_cv3_0_2_bias_to_fp16"), val = tensor<fp16, [1]>([-0x1.e3cp+2])];
            tensor<fp16, [1, 1, 40, 40]> var_824_cast_fp16 = conv(bias = model_22_cv3_0_2_bias_to_fp16, dilations = var_824_dilations_0, groups = var_824_groups_0, pad = var_824_pad_0, pad_type = var_824_pad_type_0, strides = var_824_strides_0, weight = model_22_cv3_0_2_weight_to_fp16, x = input_219_cast_fp16)[name = tensor<string, []>("op_824_cast_fp16")];
            tensor<int32, [3]> var_825 = const()[name = tensor<string, []>("op_825"), val = tensor<int32, [3]>([1, 1, -1])];
            tensor<fp16, [1, 1, 1600]> var_826_cast_fp16 = reshape(shape = var_825, x = var_824_cast_fp16)[name = tensor<string, []>("op_826_cast_fp16")];
            tensor<string, []> input_221_pad_type_0 = const()[name = tensor<string, []>("input_221_pad_type_0"), val = tensor<string, []>("custom")];
            tensor<int32, [4]> input_221_pad_0 = const()[name = tensor<string, []>("input_221_pad_0"), val = tensor<int32, [4]>([1, 1, 1, 1])];
            tensor<int32, [2]> input_221_strides_0 = const()[name = tensor<string, []>("input_221_strides_0"), val = tensor<int32, [2]>([1, 1])];
            tensor<int32, [2]> input_221_dilations_0 = const()[name = tensor<string, []>("input_221_dilations_0"), val = tensor<int32, [2]>([1, 1])];
            tensor<int32, []> input_221_groups_0 = const()[name = tensor<string, []>("input_221_groups_0"), val = tensor<int32, []>(1)];
            tensor<fp16, [64, 128, 3, 3]> model_22_cv3_1_0_conv_weight_to_fp16 = const()[name = tensor<string, []>("model_22_cv3_1_0_conv_weight_to_fp16"), val = tensor<fp16, [64, 128, 3, 3]>(BLOBFILE(path = tensor<string, []>("@model_path/weights/weight.bin"), offset = tensor<uint64, []>(5428480)))];
            tensor<fp16, [64]> model_22_cv3_1_0_conv_bias_to_fp16 = const()[name = tensor<string, []>("model_22_cv3_1_0_conv_bias_to_fp16"), val = tensor<fp16, [64]>(BLOBFILE(path = tensor<string, []>("@model_path/weights/weight.bin"), offset = tensor<uint64, []>(5576000)))];
            tensor<fp16, [1, 64, 20, 20]> input_221_cast_fp16 = conv(bias = model_22_cv3_1_0_conv_bias_to_fp16, dilations = input_221_dilations_0, groups = input_221_groups_0, pad = input_221_pad_0, pad_type = input_221_pad_type_0, strides = input_221_strides_0, weight = model_22_cv3_1_0_conv_weight_to_fp16, x = input_167_cast_fp16)[name = tensor<string, []>("input_221_cast_fp16")];
            tensor<fp16, [1, 64, 20, 20]> input_223_cast_fp16 = silu(x = input_221_cast_fp16)[name = tensor<string, []>("input_223_cast_fp16")];
            tensor<string, []> input_225_pad_type_0 = const()[name = tensor<string, []>("input_225_pad_type_0"), val = tensor<string, []>("custom")];
            tensor<int32, [4]> input_225_pad_0 = const()[name = tensor<string, []>("input_225_pad_0"), val = tensor<int32, [4]>([1, 1, 1, 1])];
            tensor<int32, [2]> input_225_strides_0 = const()[name = tensor<string, []>("input_225_strides_0"), val = tensor<int32, [2]>([1, 1])];
            tensor<int32, [2]> input_225_dilations_0 = const()[name = tensor<string, []>("input_225_dilations_0"), val = tensor<int32, [2]>([1, 1])];
            tensor<int32, []> input_225_groups_0 = const()[name = tensor<string, []>("input_225_groups_0"), val = tensor<int32, []>(1)];
            tensor<fp16, [64, 64, 3, 3]> model_22_cv3_1_1_conv_weight_to_fp16 = const()[name = tensor<string, []>("model_22_cv3_1_1_conv_weight_to_fp16"), val = tensor<fp16, [64, 64, 3, 3]>(BLOBFILE(path = tensor<string, []>("@model_path/weights/weight.bin"), offset = tensor<uint64, []>(5576192)))];
            tensor<fp16, [64]> model_22_cv3_1_1_conv_bias_to_fp16 = const()[name = tensor<string, []>("model_22_cv3_1_1_conv_bias_to_fp16"), val = tensor<fp16, [64]>(BLOBFILE(path = tensor<string, []>("@model_path/weights/weight.bin"), offset = tensor<uint64, []>(5649984)))];
            tensor<fp16, [1, 64, 20, 20]> input_225_cast_fp16 = conv(bias = model_22_cv3_1_1_conv_bias_to_fp16, dilations = input_225_dilations_0, groups = input_225_groups_0, pad = input_225_pad_0, pad_type = input_225_pad_type_0, strides = input_225_strides_0, weight = model_22_cv3_1_1_conv_weight_to_fp16, x = input_223_cast_fp16)[name = tensor<string, []>("input_225_cast_fp16")];
            tensor<fp16, [1, 64, 20, 20]> input_227_cast_fp16 = silu(x = input_225_cast_fp16)[name = tensor<string, []>("input_227_cast_fp16")];
            tensor<string, []> var_854_pad_type_0 = const()[name = tensor<string, []>("op_854_pad_type_0"), val = tensor<string, []>("valid")];
            tensor<int32, [2]> var_854_strides_0 = const()[name = tensor<string, []>("op_854_strides_0"), val = tensor<int32, [2]>([1, 1])];
            tensor<int32, [4]> var_854_pad_0 = const()[name = tensor<string, []>("op_854_pad_0"), val = tensor<int32, [4]>([0, 0, 0, 0])];
            tensor<int32, [2]> var_854_dilations_0 = const()[name = tensor<string, []>("op_854_dilations_0"), val = tensor<int32, [2]>([1, 1])];
            tensor<int32, []> var_854_groups_0 = const()[name = tensor<string, []>("op_854_groups_0"), val = tensor<int32, []>(1)];
            tensor<fp16, [1, 64, 1, 1]> model_22_cv3_1_2_weight_to_fp16 = const()[name = tensor<string, []>("model_22_cv3_1_2_weight_to_fp16"), val = tensor<fp16, [1, 64, 1, 1]>(BLOBFILE(path = tensor<string, []>("@model_path/weights/weight.bin"), offset = tensor<uint64, []>(5650176)))];
            tensor<fp16, [1]> model_22_cv3_1_2_bias_to_fp16 = const()[name = tensor<string, []>("model_22_cv3_1_2_bias_to_fp16"), val = tensor<fp16, [1]>([-0x1.78p+2])];
            tensor<fp16, [1, 1, 20, 20]> var_854_cast_fp16 = conv(bias = model_22_cv3_1_2_bias_to_fp16, dilations = var_854_dilations_0, groups = var_854_groups_0, pad = var_854_pad_0, pad_type = var_854_pad_type_0, strides = var_854_strides_0, weight = model_22_cv3_1_2_weight_to_fp16, x = input_227_cast_fp16)[name = tensor<string, []>("op_854_cast_fp16")];
            tensor<int32, [3]> var_855 = const()[name = tensor<string, []>("op_855"), val = tensor<int32, [3]>([1, 1, -1])];
            tensor<fp16, [1, 1, 400]> var_856_cast_fp16 = reshape(shape = var_855, x = var_854_cast_fp16)[name = tensor<string, []>("op_856_cast_fp16")];
            tensor<string, []> input_229_pad_type_0 = const()[name = tensor<string, []>("input_229_pad_type_0"), val = tensor<string, []>("custom")];
            tensor<int32, [4]> input_229_pad_0 = const()[name = tensor<string, []>("input_229_pad_0"), val = tensor<int32, [4]>([1, 1, 1, 1])];
            tensor<int32, [2]> input_229_strides_0 = const()[name = tensor<string, []>("input_229_strides_0"), val = tensor<int32, [2]>([1, 1])];
            tensor<int32, [2]> input_229_dilations_0 = const()[name = tensor<string, []>("input_229_dilations_0"), val = tensor<int32, [2]>([1, 1])];
            tensor<int32, []> input_229_groups_0 = const()[name = tensor<string, []>("input_229_groups_0"), val = tensor<int32, []>(1)];
            tensor<fp16, [64, 256, 3, 3]> model_22_cv3_2_0_conv_weight_to_fp16 = const()[name = tensor<string, []>("model_22_cv3_2_0_conv_weight_to_fp16"), val = tensor<fp16, [64, 256, 3, 3]>(BLOBFILE(path = tensor<string, []>("@model_path/weights/weight.bin"), offset = tensor<uint64, []>(5650368)))];
            tensor<fp16, [64]> model_22_cv3_2_0_conv_bias_to_fp16 = const()[name = tensor<string, []>("model_22_cv3_2_0_conv_bias_to_fp16"), val = tensor<fp16, [64]>(BLOBFILE(path = tensor<string, []>("@model_path/weights/weight.bin"), offset = tensor<uint64, []>(5945344)))];
            tensor<fp16, [1, 64, 10, 10]> input_229_cast_fp16 = conv(bias = model_22_cv3_2_0_conv_bias_to_fp16, dilations = input_229_dilations_0, groups = input_229_groups_0, pad = input_229_pad_0, pad_type = input_229_pad_type_0, strides = input_229_strides_0, weight = model_22_cv3_2_0_conv_weight_to_fp16, x = input_203_cast_fp16)[name = tensor<string, []>("input_229_cast_fp16")];
            tensor<fp16, [1, 64, 10, 10]> input_231_cast_fp16 = silu(x = input_229_cast_fp16)[name = tensor<string, []>("input_231_cast_fp16")];
            tensor<string, []> input_233_pad_type_0 = const()[name = tensor<string, []>("input_233_pad_type_0"), val = tensor<string, []>("custom")];
            tensor<int32, [4]> input_233_pad_0 = const()[name = tensor<string, []>("input_233_pad_0"), val = tensor<int32, [4]>([1, 1, 1, 1])];
            tensor<int32, [2]> input_233_strides_0 = const()[name = tensor<string, []>("input_233_strides_0"), val = tensor<int32, [2]>([1, 1])];
            tensor<int32, [2]> input_233_dilations_0 = const()[name = tensor<string, []>("input_233_dilations_0"), val = tensor<int32, [2]>([1, 1])];
            tensor<int32, []> input_233_groups_0 = const()[name = tensor<string, []>("input_233_groups_0"), val = tensor<int32, []>(1)];
            tensor<fp16, [64, 64, 3, 3]> model_22_cv3_2_1_conv_weight_to_fp16 = const()[name = tensor<string, []>("model_22_cv3_2_1_conv_weight_to_fp16"), val = tensor<fp16, [64, 64, 3, 3]>(BLOBFILE(path = tensor<string, []>("@model_path/weights/weight.bin"), offset = tensor<uint64, []>(5945536)))];
            tensor<fp16, [64]> model_22_cv3_2_1_conv_bias_to_fp16 = const()[name = tensor<string, []>("model_22_cv3_2_1_conv_bias_to_fp16"), val = tensor<fp16, [64]>(BLOBFILE(path = tensor<string, []>("@model_path/weights/weight.bin"), offset = tensor<uint64, []>(6019328)))];
            tensor<fp16, [1, 64, 10, 10]> input_233_cast_fp16 = conv(bias = model_22_cv3_2_1_conv_bias_to_fp16, dilations = input_233_dilations_0, groups = input_233_groups_0, pad = input_233_pad_0, pad_type = input_233_pad_type_0, strides = input_233_strides_0, weight = model_22_cv3_2_1_conv_weight_to_fp16, x = input_231_cast_fp16)[name = tensor<string, []>("input_233_cast_fp16")];
            tensor<fp16, [1, 64, 10, 10]> input_235_cast_fp16 = silu(x = input_233_cast_fp16)[name = tensor<string, []>("input_235_cast_fp16")];
            tensor<string, []> var_884_pad_type_0 = const()[name = tensor<string, []>("op_884_pad_type_0"), val = tensor<string, []>("valid")];
            tensor<int32, [2]> var_884_strides_0 = const()[name = tensor<string, []>("op_884_strides_0"), val = tensor<int32, [2]>([1, 1])];
            tensor<int32, [4]> var_884_pad_0 = const()[name = tensor<string, []>("op_884_pad_0"), val = tensor<int32, [4]>([0, 0, 0, 0])];
            tensor<int32, [2]> var_884_dilations_0 = const()[name = tensor<string, []>("op_884_dilations_0"), val = tensor<int32, [2]>([1, 1])];
            tensor<int32, []> var_884_groups_0 = const()[name = tensor<string, []>("op_884_groups_0"), val = tensor<int32, []>(1)];
            tensor<fp16, [1, 64, 1, 1]> model_22_cv3_2_2_weight_to_fp16 = const()[name = tensor<string, []>("model_22_cv3_2_2_weight_to_fp16"), val = tensor<fp16, [1, 64, 1, 1]>(BLOBFILE(path = tensor<string, []>("@model_path/weights/weight.bin"), offset = tensor<uint64, []>(6019520)))];
            tensor<fp16, [1]> model_22_cv3_2_2_bias_to_fp16 = const()[name = tensor<string, []>("model_22_cv3_2_2_bias_to_fp16"), val = tensor<fp16, [1]>([-0x1.1bp+2])];
            tensor<fp16, [1, 1, 10, 10]> var_884_cast_fp16 = conv(bias = model_22_cv3_2_2_bias_to_fp16, dilations = var_884_dilations_0, groups = var_884_groups_0, pad = var_884_pad_0, pad_type = var_884_pad_type_0, strides = var_884_strides_0, weight = model_22_cv3_2_2_weight_to_fp16, x = input_235_cast_fp16)[name = tensor<string, []>("op_884_cast_fp16")];
            tensor<int32, [3]> var_885 = const()[name = tensor<string, []>("op_885"), val = tensor<int32, [3]>([1, 1, -1])];
            tensor<fp16, [1, 1, 100]> var_886_cast_fp16 = reshape(shape = var_885, x = var_884_cast_fp16)[name = tensor<string, []>("op_886_cast_fp16")];
            tensor<bool, []> var_888_interleave_0 = const()[name = tensor<string, []>("op_888_interleave_0"), val = tensor<bool, []>(false)];
            tensor<fp16, [1, 1, 2100]> var_888_cast_fp16 = concat(axis = var_679, interleave = var_888_interleave_0, values = (var_826_cast_fp16, var_856_cast_fp16, var_886_cast_fp16))[name = tensor<string, []>("op_888_cast_fp16")];
            tensor<string, []> input_237_pad_type_0 = const()[name = tensor<string, []>("input_237_pad_type_0"), val = tensor<string, []>("custom")];
            tensor<int32, [4]> input_237_pad_0 = const()[name = tensor<string, []>("input_237_pad_0"), val = tensor<int32, [4]>([1, 1, 1, 1])];
            tensor<int32, [2]> input_237_strides_0 = const()[name = tensor<string, []>("input_237_strides_0"), val = tensor<int32, [2]>([1, 1])];
            tensor<int32, [2]> input_237_dilations_0 = const()[name = tensor<string, []>("input_237_dilations_0"), val = tensor<int32, [2]>([1, 1])];
            tensor<int32, []> input_237_groups_0 = const()[name = tensor<string, []>("input_237_groups_0"), val = tensor<int32, []>(1)];
            tensor<fp16, [16, 64, 3, 3]> model_22_cv4_0_0_conv_weight_to_fp16 = const()[name = tensor<string, []>("model_22_cv4_0_0_conv_weight_to_fp16"), val = tensor<fp16, [16, 64, 3, 3]>(BLOBFILE(path = tensor<string, []>("@model_path/weights/weight.bin"), offset = tensor<uint64, []>(6019712)))];
            tensor<fp16, [16]> model_22_cv4_0_0_conv_bias_to_fp16 = const()[name = tensor<string, []>("model_22_cv4_0_0_conv_bias_to_fp16"), val = tensor<fp16, [16]>(BLOBFILE(path = tensor<string, []>("@model_path/weights/weight.bin"), offset = tensor<uint64, []>(6038208)))];
            tensor<fp16, [1, 16, 40, 40]> input_237_cast_fp16 = conv(bias = model_22_cv4_0_0_conv_bias_to_fp16, dilations = input_237_dilations_0, groups = input_237_groups_0, pad = input_237_pad_0, pad_type = input_237_pad_type_0, strides = input_237_strides_0, weight = model_22_cv4_0_0_conv_weight_to_fp16, x = input_147_cast_fp16)[name = tensor<string, []>("input_237_cast_fp16")];
            tensor<fp16, [1, 16, 40, 40]> input_239_cast_fp16 = silu(x = input_237_cast_fp16)[name = tensor<string, []>("input_239_cast_fp16")];
            tensor<string, []> input_241_pad_type_0 = const()[name = tensor<string, []>("input_241_pad_type_0"), val = tensor<string, []>("custom")];
            tensor<int32, [4]> input_241_pad_0 = const()[name = tensor<string, []>("input_241_pad_0"), val = tensor<int32, [4]>([1, 1, 1, 1])];
            tensor<int32, [2]> input_241_strides_0 = const()[name = tensor<string, []>("input_241_strides_0"), val = tensor<int32, [2]>([1, 1])];
            tensor<int32, [2]> input_241_dilations_0 = const()[name = tensor<string, []>("input_241_dilations_0"), val = tensor<int32, [2]>([1, 1])];
            tensor<int32, []> input_241_groups_0 = const()[name = tensor<string, []>("input_241_groups_0"), val = tensor<int32, []>(1)];
            tensor<fp16, [16, 16, 3, 3]> model_22_cv4_0_1_conv_weight_to_fp16 = const()[name = tensor<string, []>("model_22_cv4_0_1_conv_weight_to_fp16"), val = tensor<fp16, [16, 16, 3, 3]>(BLOBFILE(path = tensor<string, []>("@model_path/weights/weight.bin"), offset = tensor<uint64, []>(6038336)))];
            tensor<fp16, [16]> model_22_cv4_0_1_conv_bias_to_fp16 = const()[name = tensor<string, []>("model_22_cv4_0_1_conv_bias_to_fp16"), val = tensor<fp16, [16]>(BLOBFILE(path = tensor<string, []>("@model_path/weights/weight.bin"), offset = tensor<uint64, []>(6043008)))];
            tensor<fp16, [1, 16, 40, 40]> input_241_cast_fp16 = conv(bias = model_22_cv4_0_1_conv_bias_to_fp16, dilations = input_241_dilations_0, groups = input_241_groups_0, pad = input_241_pad_0, pad_type = input_241_pad_type_0, strides = input_241_strides_0, weight = model_22_cv4_0_1_conv_weight_to_fp16, x = input_239_cast_fp16)[name = tensor<string, []>("input_241_cast_fp16")];
            tensor<fp16, [1, 16, 40, 40]> input_243_cast_fp16 = silu(x = input_241_cast_fp16)[name = tensor<string, []>("input_243_cast_fp16")];
            tensor<string, []> var_917_pad_type_0 = const()[name = tensor<string, []>("op_917_pad_type_0"), val = tensor<string, []>("valid")];
            tensor<int32, [2]> var_917_strides_0 = const()[name = tensor<string, []>("op_917_strides_0"), val = tensor<int32, [2]>([1, 1])];
            tensor<int32, [4]> var_917_pad_0 = const()[name = tensor<string, []>("op_917_pad_0"), val = tensor<int32, [4]>([0, 0, 0, 0])];
            tensor<int32, [2]> var_917_dilations_0 = const()[name = tensor<string, []>("op_917_dilations_0"), val = tensor<int32, [2]>([1, 1])];
            tensor<int32, []> var_917_groups_0 = const()[name = tensor<string, []>("op_917_groups_0"), val = tensor<int32, []>(1)];
            tensor<fp16, [9, 16, 1, 1]> model_22_cv4_0_2_weight_to_fp16 = const()[name = tensor<string, []>("model_22_cv4_0_2_weight_to_fp16"), val = tensor<fp16, [9, 16, 1, 1]>(BLOBFILE(path = tensor<string, []>("@model_path/weights/weight.bin"), offset = tensor<uint64, []>(6043136)))];
            tensor<fp16, [9]> model_22_cv4_0_2_bias_to_fp16 = const()[name = tensor<string, []>("model_22_cv4_0_2_bias_to_fp16"), val = tensor<fp16, [9]>([0x1.4b4p-5, 0x1.02p-4, -0x1.77p-3, 0x1.a6cp-4, 0x1.75cp-3, -0x1.d94p-2, -0x1.5e4p-4, 0x1.a4cp-4, -0x1.94p-3])];
            tensor<fp16, [1, 9, 40, 40]> var_917_cast_fp16 = conv(bias = model_22_cv4_0_2_bias_to_fp16, dilations = var_917_dilations_0, groups = var_917_groups_0, pad = var_917_pad_0, pad_type = var_917_pad_type_0, strides = var_917_strides_0, weight = model_22_cv4_0_2_weight_to_fp16, x = input_243_cast_fp16)[name = tensor<string, []>("op_917_cast_fp16")];
            tensor<int32, [3]> var_918 = const()[name = tensor<string, []>("op_918"), val = tensor<int32, [3]>([1, 9, -1])];
            tensor<fp16, [1, 9, 1600]> var_919_cast_fp16 = reshape(shape = var_918, x = var_917_cast_fp16)[name = tensor<string, []>("op_919_cast_fp16")];
            tensor<string, []> input_245_pad_type_0 = const()[name = tensor<string, []>("input_245_pad_type_0"), val = tensor<string, []>("custom")];
            tensor<int32, [4]> input_245_pad_0 = const()[name = tensor<string, []>("input_245_pad_0"), val = tensor<int32, [4]>([1, 1, 1, 1])];
            tensor<int32, [2]> input_245_strides_0 = const()[name = tensor<string, []>("input_245_strides_0"), val = tensor<int32, [2]>([1, 1])];
            tensor<int32, [2]> input_245_dilations_0 = const()[name = tensor<string, []>("input_245_dilations_0"), val = tensor<int32, [2]>([1, 1])];
            tensor<int32, []> input_245_groups_0 = const()[name = tensor<string, []>("input_245_groups_0"), val = tensor<int32, []>(1)];
            tensor<fp16, [16, 128, 3, 3]> model_22_cv4_1_0_conv_weight_to_fp16 = const()[name = tensor<string, []>("model_22_cv4_1_0_conv_weight_to_fp16"), val = tensor<fp16, [16, 128, 3, 3]>(BLOBFILE(path = tensor<string, []>("@model_path/weights/weight.bin"), offset = tensor<uint64, []>(6043520)))];
            tensor<fp16, [16]> model_22_cv4_1_0_conv_bias_to_fp16 = const()[name = tensor<string, []>("model_22_cv4_1_0_conv_bias_to_fp16"), val = tensor<fp16, [16]>(BLOBFILE(path = tensor<string, []>("@model_path/weights/weight.bin"), offset = tensor<uint64, []>(6080448)))];
            tensor<fp16, [1, 16, 20, 20]> input_245_cast_fp16 = conv(bias = model_22_cv4_1_0_conv_bias_to_fp16, dilations = input_245_dilations_0, groups = input_245_groups_0, pad = input_245_pad_0, pad_type = input_245_pad_type_0, strides = input_245_strides_0, weight = model_22_cv4_1_0_conv_weight_to_fp16, x = input_167_cast_fp16)[name = tensor<string, []>("input_245_cast_fp16")];
            tensor<fp16, [1, 16, 20, 20]> input_247_cast_fp16 = silu(x = input_245_cast_fp16)[name = tensor<string, []>("input_247_cast_fp16")];
            tensor<string, []> input_249_pad_type_0 = const()[name = tensor<string, []>("input_249_pad_type_0"), val = tensor<string, []>("custom")];
            tensor<int32, [4]> input_249_pad_0 = const()[name = tensor<string, []>("input_249_pad_0"), val = tensor<int32, [4]>([1, 1, 1, 1])];
            tensor<int32, [2]> input_249_strides_0 = const()[name = tensor<string, []>("input_249_strides_0"), val = tensor<int32, [2]>([1, 1])];
            tensor<int32, [2]> input_249_dilations_0 = const()[name = tensor<string, []>("input_249_dilations_0"), val = tensor<int32, [2]>([1, 1])];
            tensor<int32, []> input_249_groups_0 = const()[name = tensor<string, []>("input_249_groups_0"), val = tensor<int32, []>(1)];
            tensor<fp16, [16, 16, 3, 3]> model_22_cv4_1_1_conv_weight_to_fp16 = const()[name = tensor<string, []>("model_22_cv4_1_1_conv_weight_to_fp16"), val = tensor<fp16, [16, 16, 3, 3]>(BLOBFILE(path = tensor<string, []>("@model_path/weights/weight.bin"), offset = tensor<uint64, []>(6080576)))];
            tensor<fp16, [16]> model_22_cv4_1_1_conv_bias_to_fp16 = const()[name = tensor<string, []>("model_22_cv4_1_1_conv_bias_to_fp16"), val = tensor<fp16, [16]>(BLOBFILE(path = tensor<string, []>("@model_path/weights/weight.bin"), offset = tensor<uint64, []>(6085248)))];
            tensor<fp16, [1, 16, 20, 20]> input_249_cast_fp16 = conv(bias = model_22_cv4_1_1_conv_bias_to_fp16, dilations = input_249_dilations_0, groups = input_249_groups_0, pad = input_249_pad_0, pad_type = input_249_pad_type_0, strides = input_249_strides_0, weight = model_22_cv4_1_1_conv_weight_to_fp16, x = input_247_cast_fp16)[name = tensor<string, []>("input_249_cast_fp16")];
            tensor<fp16, [1, 16, 20, 20]> input_251_cast_fp16 = silu(x = input_249_cast_fp16)[name = tensor<string, []>("input_251_cast_fp16")];
            tensor<string, []> var_947_pad_type_0 = const()[name = tensor<string, []>("op_947_pad_type_0"), val = tensor<string, []>("valid")];
            tensor<int32, [2]> var_947_strides_0 = const()[name = tensor<string, []>("op_947_strides_0"), val = tensor<int32, [2]>([1, 1])];
            tensor<int32, [4]> var_947_pad_0 = const()[name = tensor<string, []>("op_947_pad_0"), val = tensor<int32, [4]>([0, 0, 0, 0])];
            tensor<int32, [2]> var_947_dilations_0 = const()[name = tensor<string, []>("op_947_dilations_0"), val = tensor<int32, [2]>([1, 1])];
            tensor<int32, []> var_947_groups_0 = const()[name = tensor<string, []>("op_947_groups_0"), val = tensor<int32, []>(1)];
            tensor<fp16, [9, 16, 1, 1]> model_22_cv4_1_2_weight_to_fp16 = const()[name = tensor<string, []>("model_22_cv4_1_2_weight_to_fp16"), val = tensor<fp16, [9, 16, 1, 1]>(BLOBFILE(path = tensor<string, []>("@model_path/weights/weight.bin"), offset = tensor<uint64, []>(6085376)))];
            tensor<fp16, [9]> model_22_cv4_1_2_bias_to_fp16 = const()[name = tensor<string, []>("model_22_cv4_1_2_bias_to_fp16"), val = tensor<fp16, [9]>([0x1.3a4p-3, -0x1.2a4p-5, -0x1.cc8p-6, 0x1.2c8p-10, -0x1.9d8p-4, -0x1.788p-2, 0x1.8e4p-3, -0x1.01cp-4, 0x1.0a4p-3])];
            tensor<fp16, [1, 9, 20, 20]> var_947_cast_fp16 = conv(bias = model_22_cv4_1_2_bias_to_fp16, dilations = var_947_dilations_0, groups = var_947_groups_0, pad = var_947_pad_0, pad_type = var_947_pad_type_0, strides = var_947_strides_0, weight = model_22_cv4_1_2_weight_to_fp16, x = input_251_cast_fp16)[name = tensor<string, []>("op_947_cast_fp16")];
            tensor<int32, [3]> var_948 = const()[name = tensor<string, []>("op_948"), val = tensor<int32, [3]>([1, 9, -1])];
            tensor<fp16, [1, 9, 400]> var_949_cast_fp16 = reshape(shape = var_948, x = var_947_cast_fp16)[name = tensor<string, []>("op_949_cast_fp16")];
            tensor<string, []> input_253_pad_type_0 = const()[name = tensor<string, []>("input_253_pad_type_0"), val = tensor<string, []>("custom")];
            tensor<int32, [4]> input_253_pad_0 = const()[name = tensor<string, []>("input_253_pad_0"), val = tensor<int32, [4]>([1, 1, 1, 1])];
            tensor<int32, [2]> input_253_strides_0 = const()[name = tensor<string, []>("input_253_strides_0"), val = tensor<int32, [2]>([1, 1])];
            tensor<int32, [2]> input_253_dilations_0 = const()[name = tensor<string, []>("input_253_dilations_0"), val = tensor<int32, [2]>([1, 1])];
            tensor<int32, []> input_253_groups_0 = const()[name = tensor<string, []>("input_253_groups_0"), val = tensor<int32, []>(1)];
            tensor<fp16, [16, 256, 3, 3]> model_22_cv4_2_0_conv_weight_to_fp16 = const()[name = tensor<string, []>("model_22_cv4_2_0_conv_weight_to_fp16"), val = tensor<fp16, [16, 256, 3, 3]>(BLOBFILE(path = tensor<string, []>("@model_path/weights/weight.bin"), offset = tensor<uint64, []>(6085760)))];
            tensor<fp16, [16]> model_22_cv4_2_0_conv_bias_to_fp16 = const()[name = tensor<string, []>("model_22_cv4_2_0_conv_bias_to_fp16"), val = tensor<fp16, [16]>(BLOBFILE(path = tensor<string, []>("@model_path/weights/weight.bin"), offset = tensor<uint64, []>(6159552)))];
            tensor<fp16, [1, 16, 10, 10]> input_253_cast_fp16 = conv(bias = model_22_cv4_2_0_conv_bias_to_fp16, dilations = input_253_dilations_0, groups = input_253_groups_0, pad = input_253_pad_0, pad_type = input_253_pad_type_0, strides = input_253_strides_0, weight = model_22_cv4_2_0_conv_weight_to_fp16, x = input_203_cast_fp16)[name = tensor<string, []>("input_253_cast_fp16")];
            tensor<fp16, [1, 16, 10, 10]> input_255_cast_fp16 = silu(x = input_253_cast_fp16)[name = tensor<string, []>("input_255_cast_fp16")];
            tensor<string, []> input_257_pad_type_0 = const()[name = tensor<string, []>("input_257_pad_type_0"), val = tensor<string, []>("custom")];
            tensor<int32, [4]> input_257_pad_0 = const()[name = tensor<string, []>("input_257_pad_0"), val = tensor<int32, [4]>([1, 1, 1, 1])];
            tensor<int32, [2]> input_257_strides_0 = const()[name = tensor<string, []>("input_257_strides_0"), val = tensor<int32, [2]>([1, 1])];
            tensor<int32, [2]> input_257_dilations_0 = const()[name = tensor<string, []>("input_257_dilations_0"), val = tensor<int32, [2]>([1, 1])];
            tensor<int32, []> input_257_groups_0 = const()[name = tensor<string, []>("input_257_groups_0"), val = tensor<int32, []>(1)];
            tensor<fp16, [16, 16, 3, 3]> model_22_cv4_2_1_conv_weight_to_fp16 = const()[name = tensor<string, []>("model_22_cv4_2_1_conv_weight_to_fp16"), val = tensor<fp16, [16, 16, 3, 3]>(BLOBFILE(path = tensor<string, []>("@model_path/weights/weight.bin"), offset = tensor<uint64, []>(6159680)))];
            tensor<fp16, [16]> model_22_cv4_2_1_conv_bias_to_fp16 = const()[name = tensor<string, []>("model_22_cv4_2_1_conv_bias_to_fp16"), val = tensor<fp16, [16]>(BLOBFILE(path = tensor<string, []>("@model_path/weights/weight.bin"), offset = tensor<uint64, []>(6164352)))];
            tensor<fp16, [1, 16, 10, 10]> input_257_cast_fp16 = conv(bias = model_22_cv4_2_1_conv_bias_to_fp16, dilations = input_257_dilations_0, groups = input_257_groups_0, pad = input_257_pad_0, pad_type = input_257_pad_type_0, strides = input_257_strides_0, weight = model_22_cv4_2_1_conv_weight_to_fp16, x = input_255_cast_fp16)[name = tensor<string, []>("input_257_cast_fp16")];
            tensor<fp16, [1, 16, 10, 10]> input_259_cast_fp16 = silu(x = input_257_cast_fp16)[name = tensor<string, []>("input_259_cast_fp16")];
            tensor<string, []> var_977_pad_type_0 = const()[name = tensor<string, []>("op_977_pad_type_0"), val = tensor<string, []>("valid")];
            tensor<int32, [2]> var_977_strides_0 = const()[name = tensor<string, []>("op_977_strides_0"), val = tensor<int32, [2]>([1, 1])];
            tensor<int32, [4]> var_977_pad_0 = const()[name = tensor<string, []>("op_977_pad_0"), val = tensor<int32, [4]>([0, 0, 0, 0])];
            tensor<int32, [2]> var_977_dilations_0 = const()[name = tensor<string, []>("op_977_dilations_0"), val = tensor<int32, [2]>([1, 1])];
            tensor<int32, []> var_977_groups_0 = const()[name = tensor<string, []>("op_977_groups_0"), val = tensor<int32, []>(1)];
            tensor<fp16, [9, 16, 1, 1]> model_22_cv4_2_2_weight_to_fp16 = const()[name = tensor<string, []>("model_22_cv4_2_2_weight_to_fp16"), val = tensor<fp16, [9, 16, 1, 1]>(BLOBFILE(path = tensor<string, []>("@model_path/weights/weight.bin"), offset = tensor<uint64, []>(6164480)))];
            tensor<fp16, [9]> model_22_cv4_2_2_bias_to_fp16 = const()[name = tensor<string, []>("model_22_cv4_2_2_bias_to_fp16"), val = tensor<fp16, [9]>([-0x1.ae8p-5, 0x1.04p-2, 0x1.a6cp-2, -0x1.0e4p-5, 0x1.d44p-4, 0x1.408p-2, 0x1.704p-3, -0x1.35cp-5, 0x1.004p-1])];
            tensor<fp16, [1, 9, 10, 10]> var_977_cast_fp16 = conv(bias = model_22_cv4_2_2_bias_to_fp16, dilations = var_977_dilations_0, groups = var_977_groups_0, pad = var_977_pad_0, pad_type = var_977_pad_type_0, strides = var_977_strides_0, weight = model_22_cv4_2_2_weight_to_fp16, x = input_259_cast_fp16)[name = tensor<string, []>("op_977_cast_fp16")];
            tensor<int32, [3]> var_978 = const()[name = tensor<string, []>("op_978"), val = tensor<int32, [3]>([1, 9, -1])];
            tensor<fp16, [1, 9, 100]> var_979_cast_fp16 = reshape(shape = var_978, x = var_977_cast_fp16)[name = tensor<string, []>("op_979_cast_fp16")];
            tensor<bool, []> kpts_interleave_0 = const()[name = tensor<string, []>("kpts_interleave_0"), val = tensor<bool, []>(false)];
            tensor<fp16, [1, 9, 2100]> kpts_cast_fp16 = concat(axis = var_677, interleave = kpts_interleave_0, values = (var_919_cast_fp16, var_949_cast_fp16, var_979_cast_fp16))[name = tensor<string, []>("kpts_cast_fp16")];
            tensor<int32, [4]> var_985 = const()[name = tensor<string, []>("op_985"), val = tensor<int32, [4]>([1, 4, 16, 2100])];
            tensor<fp16, [1, 4, 16, 2100]> var_986_cast_fp16 = reshape(shape = var_985, x = x_cast_fp16)[name = tensor<string, []>("op_986_cast_fp16")];
            tensor<int32, [4]> var_987_perm_0 = const()[name = tensor<string, []>("op_987_perm_0"), val = tensor<int32, [4]>([0, 2, 1, 3])];
            tensor<fp16, [1, 16, 4, 2100]> var_987_cast_fp16 = transpose(perm = var_987_perm_0, x = var_986_cast_fp16)[name = tensor<string, []>("transpose_0")];
            tensor<fp16, [1, 16, 4, 2100]> input_cast_fp16 = softmax(axis = var_681, x = var_987_cast_fp16)[name = tensor<string, []>("input_cast_fp16")];
            tensor<string, []> var_994_pad_type_0 = const()[name = tensor<string, []>("op_994_pad_type_0"), val = tensor<string, []>("valid")];
            tensor<int32, [2]> var_994_strides_0 = const()[name = tensor<string, []>("op_994_strides_0"), val = tensor<int32, [2]>([1, 1])];
            tensor<int32, [4]> var_994_pad_0 = const()[name = tensor<string, []>("op_994_pad_0"), val = tensor<int32, [4]>([0, 0, 0, 0])];
            tensor<int32, [2]> var_994_dilations_0 = const()[name = tensor<string, []>("op_994_dilations_0"), val = tensor<int32, [2]>([1, 1])];
            tensor<int32, []> var_994_groups_0 = const()[name = tensor<string, []>("op_994_groups_0"), val = tensor<int32, []>(1)];
            tensor<fp16, [1, 16, 1, 1]> model_22_dfl_conv_weight_to_fp16 = const()[name = tensor<string, []>("model_22_dfl_conv_weight_to_fp16"), val = tensor<fp16, [1, 16, 1, 1]>(BLOBFILE(path = tensor<string, []>("@model_path/weights/weight.bin"), offset = tensor<uint64, []>(6164864)))];
            tensor<fp16, [1, 1, 4, 2100]> var_994_cast_fp16 = conv(dilations = var_994_dilations_0, groups = var_994_groups_0, pad = var_994_pad_0, pad_type = var_994_pad_type_0, strides = var_994_strides_0, weight = model_22_dfl_conv_weight_to_fp16, x = input_cast_fp16)[name = tensor<string, []>("op_994_cast_fp16")];
            tensor<int32, [3]> var_995 = const()[name = tensor<string, []>("op_995"), val = tensor<int32, [3]>([1, 4, 2100])];
            tensor<fp16, [1, 4, 2100]> distance_cast_fp16 = reshape(shape = var_995, x = var_994_cast_fp16)[name = tensor<string, []>("distance_cast_fp16")];
            tensor<int32, [2]> var_998_split_sizes_0 = const()[name = tensor<string, []>("op_998_split_sizes_0"), val = tensor<int32, [2]>([2, 2])];
            tensor<int32, []> var_998_axis_0 = const()[name = tensor<string, []>("op_998_axis_0"), val = tensor<int32, []>(1)];
            tensor<fp16, [1, 2, 2100]> var_998_cast_fp16_0, tensor<fp16, [1, 2, 2100]> var_998_cast_fp16_1 = split(axis = var_998_axis_0, split_sizes = var_998_split_sizes_0, x = distance_cast_fp16)[name = tensor<string, []>("op_998_cast_fp16")];
            tensor<fp16, [1, 2, 2100]> anchor_points_to_fp16 = const()[name = tensor<string, []>("anchor_points_to_fp16"), val = tensor<fp16, [1, 2, 2100]>(BLOBFILE(path = tensor<string, []>("@model_path/weights/weight.bin"), offset = tensor<uint64, []>(6164992)))];
            tensor<fp16, [1, 2, 2100]> x1y1_cast_fp16 = sub(x = anchor_points_to_fp16, y = var_998_cast_fp16_0)[name = tensor<string, []>("x1y1_cast_fp16")];
            tensor<fp16, [1, 2, 2100]> x2y2_cast_fp16 = add(x = anchor_points_to_fp16, y = var_998_cast_fp16_1)[name = tensor<string, []>("x2y2_cast_fp16")];
            tensor<fp16, [1, 2, 2100]> var_1002_cast_fp16 = add(x = x1y1_cast_fp16, y = x2y2_cast_fp16)[name = tensor<string, []>("op_1002_cast_fp16")];
            tensor<fp16, []> _inversed_c_xy_y_0_to_fp16 = const()[name = tensor<string, []>("_inversed_c_xy_y_0_to_fp16"), val = tensor<fp16, []>(0x1p-1)];
            tensor<fp16, [1, 2, 2100]> _inversed_c_xy_cast_fp16 = mul(x = var_1002_cast_fp16, y = _inversed_c_xy_y_0_to_fp16)[name = tensor<string, []>("_inversed_c_xy_cast_fp16")];
            tensor<fp16, [1, 2, 2100]> wh_cast_fp16 = sub(x = x2y2_cast_fp16, y = x1y1_cast_fp16)[name = tensor<string, []>("wh_cast_fp16")];
            tensor<bool, []> var_1007_interleave_0 = const()[name = tensor<string, []>("op_1007_interleave_0"), val = tensor<bool, []>(false)];
            tensor<fp16, [1, 4, 2100]> var_1007_cast_fp16 = concat(axis = var_681, interleave = var_1007_interleave_0, values = (_inversed_c_xy_cast_fp16, wh_cast_fp16))[name = tensor<string, []>("op_1007_cast_fp16")];
            tensor<fp16, [1, 2100]> var_672_to_fp16 = const()[name = tensor<string, []>("op_672_to_fp16"), val = tensor<fp16, [1, 2100]>(BLOBFILE(path = tensor<string, []>("@model_path/weights/weight.bin"), offset = tensor<uint64, []>(6173504)))];
            tensor<fp16, [1, 4, 2100]> dbox_cast_fp16 = mul(x = var_1007_cast_fp16, y = var_672_to_fp16)[name = tensor<string, []>("dbox_cast_fp16")];
            tensor<fp16, [1, 1, 2100]> var_1009_cast_fp16 = sigmoid(x = var_888_cast_fp16)[name = tensor<string, []>("op_1009_cast_fp16")];
            tensor<int32, [4]> var_1011 = const()[name = tensor<string, []>("op_1011"), val = tensor<int32, [4]>([1, 3, 3, -1])];
            tensor<fp16, [1, 3, 3, 2100]> y_cast_fp16 = reshape(shape = var_1011, x = kpts_cast_fp16)[name = tensor<string, []>("y_cast_fp16")];
            tensor<int32, [4]> var_1015_begin_0 = const()[name = tensor<string, []>("op_1015_begin_0"), val = tensor<int32, [4]>([0, 0, 0, 0])];
            tensor<int32, [4]> var_1015_end_0 = const()[name = tensor<string, []>("op_1015_end_0"), val = tensor<int32, [4]>([1, 3, 2, 2100])];
            tensor<bool, [4]> var_1015_end_mask_0 = const()[name = tensor<string, []>("op_1015_end_mask_0"), val = tensor<bool, [4]>([true, true, false, true])];
            tensor<fp16, [1, 3, 2, 2100]> var_1015_cast_fp16 = slice_by_index(begin = var_1015_begin_0, end = var_1015_end_0, end_mask = var_1015_end_mask_0, x = y_cast_fp16)[name = tensor<string, []>("op_1015_cast_fp16")];
            tensor<fp16, []> var_1016_to_fp16 = const()[name = tensor<string, []>("op_1016_to_fp16"), val = tensor<fp16, []>(0x1p+1)];
            tensor<fp16, [1, 3, 2, 2100]> var_1017_cast_fp16 = mul(x = var_1015_cast_fp16, y = var_1016_to_fp16)[name = tensor<string, []>("op_1017_cast_fp16")];
            tensor<fp16, [2, 2100]> var_1019_to_fp16 = const()[name = tensor<string, []>("op_1019_to_fp16"), val = tensor<fp16, [2, 2100]>(BLOBFILE(path = tensor<string, []>("@model_path/weights/weight.bin"), offset = tensor<uint64, []>(6177792)))];
            tensor<fp16, [1, 3, 2, 2100]> var_1020_cast_fp16 = add(x = var_1017_cast_fp16, y = var_1019_to_fp16)[name = tensor<string, []>("op_1020_cast_fp16")];
            tensor<fp16, [1, 3, 2, 2100]> a_3_cast_fp16 = mul(x = var_1020_cast_fp16, y = var_672_to_fp16)[name = tensor<string, []>("a_3_cast_fp16")];
            tensor<int32, [4]> var_1024_begin_0 = const()[name = tensor<string, []>("op_1024_begin_0"), val = tensor<int32, [4]>([0, 0, 2, 0])];
            tensor<int32, [4]> var_1024_end_0 = const()[name = tensor<string, []>("op_1024_end_0"), val = tensor<int32, [4]>([1, 3, 1, 2100])];
            tensor<bool, [4]> var_1024_end_mask_0 = const()[name = tensor<string, []>("op_1024_end_mask_0"), val = tensor<bool, [4]>([true, true, true, true])];
            tensor<fp16, [1, 3, 1, 2100]> var_1024_cast_fp16 = slice_by_index(begin = var_1024_begin_0, end = var_1024_end_0, end_mask = var_1024_end_mask_0, x = y_cast_fp16)[name = tensor<string, []>("op_1024_cast_fp16")];
            tensor<fp16, [1, 3, 1, 2100]> var_1025_cast_fp16 = sigmoid(x = var_1024_cast_fp16)[name = tensor<string, []>("op_1025_cast_fp16")];
            tensor<bool, []> a_interleave_0 = const()[name = tensor<string, []>("a_interleave_0"), val = tensor<bool, []>(false)];
            tensor<fp16, [1, 3, 3, 2100]> a_cast_fp16 = concat(axis = var_677, interleave = a_interleave_0, values = (a_3_cast_fp16, var_1025_cast_fp16))[name = tensor<string, []>("a_cast_fp16")];
            tensor<int32, [3]> var_1028 = const()[name = tensor<string, []>("op_1028"), val = tensor<int32, [3]>([1, 9, -1])];
            tensor<fp16, [1, 9, 2100]> var_1029_cast_fp16 = reshape(shape = var_1028, x = a_cast_fp16)[name = tensor<string, []>("op_1029_cast_fp16")];
            tensor<bool, []> var_1031_interleave_0 = const()[name = tensor<string, []>("op_1031_interleave_0"), val = tensor<bool, []>(false)];
            tensor<fp16, [1, 14, 2100]> var_1031_cast_fp16 = concat(axis = var_681, interleave = var_1031_interleave_0, values = (dbox_cast_fp16, var_1009_cast_fp16, var_1029_cast_fp16))[name = tensor<string, []>("op_1031_cast_fp16")];
            tensor<string, []> var_1031_cast_fp16_to_fp32_dtype_0 = const()[name = tensor<string, []>("op_1031_cast_fp16_to_fp32_dtype_0"), val = tensor<string, []>("fp32")];
            tensor<fp32, [1, 14, 2100]> var_1031 = cast(dtype = var_1031_cast_fp16_to_fp32_dtype_0, x = var_1031_cast_fp16)[name = tensor<string, []>("cast_15")];
        } -> (var_1031);
}